{"format": "graph-model", "generatedBy": "2.15.0", "convertedBy": "TensorFlow.js Converter v4.17.0", "signature": {"inputs": {"x": {"name": "x:0", "dtype": "DT_FLOAT", "tensorShape": {"dim": [{"size": "-1"}, {"size": "384"}, {"size": "384"}, {"size": "3"}]}}}, "outputs": {"output_0": {"name": "Identity:0", "dtype": "DT_FLOAT", "tensorShape": {"dim": [{"size": "1"}, {"size": "384"}, {"size": "384"}, {"size": "2"}]}}}}, "modelTopology": {"node": [{"name": "unknown_216", "op": "Const", "attr": {"value": {"tensor": {"dtype": "DT_FLOAT", "tensorShape": {"dim": [{"size": "1"}, {"size": "1"}, {"size": "960"}, {"size": "256"}]}}}, "dtype": {"type": "DT_FLOAT"}}}, {"name": "unknown_220", "op": "Const", "attr": {"value": {"tensor": {"dtype": "DT_FLOAT", "tensorShape": {"dim": [{"size": "256"}]}}}, "dtype": {"type": "DT_FLOAT"}}}, {"name": "PartitionedCall/PartitionedCall/model/tf.space_to_batch_nd/SpaceToBatchND/block_shape", "op": "Const", "attr": {"dtype": {"type": "DT_INT32"}, "value": {"tensor": {"dtype": "DT_INT32", "tensorShape": {"dim": [{"size": "2"}]}}}}}, {"name": "PartitionedCall/PartitionedCall/model/tf.space_to_batch_nd/SpaceToBatchND/paddings", "op": "Const", "attr": {"value": {"tensor": {"dtype": "DT_INT32", "tensorShape": {"dim": [{"size": "2"}, {"size": "2"}]}}}, "dtype": {"type": "DT_INT32"}}}, {"name": "unknown_214", "op": "Const", "attr": {"value": {"tensor": {"dtype": "DT_FLOAT", "tensorShape": {"dim": [{"size": "3"}, {"size": "3"}, {"size": "960"}, {"size": "256"}]}}}, "dtype": {"type": "DT_FLOAT"}}}, {"name": "PartitionedCall/PartitionedCall/model/tf.compat.v1.batch_to_space_nd/BatchToSpaceND/block_shape", "op": "Const", "attr": {"dtype": {"type": "DT_INT32"}, "value": {"tensor": {"dtype": "DT_INT32", "tensorShape": {"dim": [{"size": "2"}]}}}}}, {"name": "PartitionedCall/PartitionedCall/model/tf.compat.v1.batch_to_space_nd/BatchToSpaceND/crops", "op": "Const", "attr": {"dtype": {"type": "DT_INT32"}, "value": {"tensor": {"dtype": "DT_INT32", "tensorShape": {"dim": [{"size": "2"}, {"size": "2"}]}}}}}, {"name": "unknown_219", "op": "Const", "attr": {"dtype": {"type": "DT_FLOAT"}, "value": {"tensor": {"dtype": "DT_FLOAT", "tensorShape": {"dim": [{"size": "256"}]}}}}}, {"name": "PartitionedCall/PartitionedCall/model/tf.space_to_batch_nd_1/SpaceToBatchND/block_shape", "op": "Const", "attr": {"dtype": {"type": "DT_INT32"}, "value": {"tensor": {"dtype": "DT_INT32", "tensorShape": {"dim": [{"size": "2"}]}}}}}, {"name": "PartitionedCall/PartitionedCall/model/tf.space_to_batch_nd_1/SpaceToBatchND/paddings", "op": "Const", "attr": {"dtype": {"type": "DT_INT32"}, "value": {"tensor": {"dtype": "DT_INT32", "tensorShape": {"dim": [{"size": "2"}, {"size": "2"}]}}}}}, {"name": "unknown_213", "op": "Const", "attr": {"dtype": {"type": "DT_FLOAT"}, "value": {"tensor": {"dtype": "DT_FLOAT", "tensorShape": {"dim": [{"size": "3"}, {"size": "3"}, {"size": "960"}, {"size": "256"}]}}}}}, {"name": "PartitionedCall/PartitionedCall/model/tf.compat.v1.batch_to_space_nd_1/BatchToSpaceND/block_shape", "op": "Const", "attr": {"dtype": {"type": "DT_INT32"}, "value": {"tensor": {"dtype": "DT_INT32", "tensorShape": {"dim": [{"size": "2"}]}}}}}, {"name": "PartitionedCall/PartitionedCall/model/tf.compat.v1.batch_to_space_nd_1/BatchToSpaceND/crops", "op": "Const", "attr": {"value": {"tensor": {"dtype": "DT_INT32", "tensorShape": {"dim": [{"size": "2"}, {"size": "2"}]}}}, "dtype": {"type": "DT_INT32"}}}, {"name": "unknown_218", "op": "Const", "attr": {"value": {"tensor": {"dtype": "DT_FLOAT", "tensorShape": {"dim": [{"size": "256"}]}}}, "dtype": {"type": "DT_FLOAT"}}}, {"name": "PartitionedCall/PartitionedCall/model/tf.space_to_batch_nd_2/SpaceToBatchND/block_shape", "op": "Const", "attr": {"dtype": {"type": "DT_INT32"}, "value": {"tensor": {"dtype": "DT_INT32", "tensorShape": {"dim": [{"size": "2"}]}}}}}, {"name": "PartitionedCall/PartitionedCall/model/tf.space_to_batch_nd_2/SpaceToBatchND/paddings", "op": "Const", "attr": {"value": {"tensor": {"dtype": "DT_INT32", "tensorShape": {"dim": [{"size": "2"}, {"size": "2"}]}}}, "dtype": {"type": "DT_INT32"}}}, {"name": "unknown_212", "op": "Const", "attr": {"dtype": {"type": "DT_FLOAT"}, "value": {"tensor": {"dtype": "DT_FLOAT", "tensorShape": {"dim": [{"size": "3"}, {"size": "3"}, {"size": "960"}, {"size": "256"}]}}}}}, {"name": "PartitionedCall/PartitionedCall/model/tf.compat.v1.batch_to_space_nd_2/BatchToSpaceND/block_shape", "op": "Const", "attr": {"dtype": {"type": "DT_INT32"}, "value": {"tensor": {"dtype": "DT_INT32", "tensorShape": {"dim": [{"size": "2"}]}}}}}, {"name": "PartitionedCall/PartitionedCall/model/tf.compat.v1.batch_to_space_nd_2/BatchToSpaceND/crops", "op": "Const", "attr": {"dtype": {"type": "DT_INT32"}, "value": {"tensor": {"dtype": "DT_INT32", "tensorShape": {"dim": [{"size": "2"}, {"size": "2"}]}}}}}, {"name": "unknown_217", "op": "Const", "attr": {"value": {"tensor": {"dtype": "DT_FLOAT", "tensorShape": {"dim": [{"size": "256"}]}}}, "dtype": {"type": "DT_FLOAT"}}}, {"name": "unknown_210", "op": "Const", "attr": {"value": {"tensor": {"dtype": "DT_FLOAT", "tensorShape": {}}}, "dtype": {"type": "DT_FLOAT"}}}, {"name": "unknown_209", "op": "Const", "attr": {"value": {"tensor": {"dtype": "DT_FLOAT", "tensorShape": {}}}, "dtype": {"type": "DT_FLOAT"}}}, {"name": "unknown_208", "op": "Const", "attr": {"value": {"tensor": {"dtype": "DT_FLOAT", "tensorShape": {}}}, "dtype": {"type": "DT_FLOAT"}}}, {"name": "unknown_203", "op": "Const", "attr": {"dtype": {"type": "DT_FLOAT"}, "value": {"tensor": {"dtype": "DT_FLOAT", "tensorShape": {}}}}}, {"name": "unknown_202", "op": "Const", "attr": {"value": {"tensor": {"dtype": "DT_FLOAT", "tensorShape": {}}}, "dtype": {"type": "DT_FLOAT"}}}, {"name": "unknown_201", "op": "Const", "attr": {"dtype": {"type": "DT_FLOAT"}, "value": {"tensor": {"dtype": "DT_FLOAT", "tensorShape": {}}}}}, {"name": "PartitionedCall/PartitionedCall/model/tf.math.reduce_mean_7/Mean/reduction_indices", "op": "Const", "attr": {"dtype": {"type": "DT_INT32"}, "value": {"tensor": {"dtype": "DT_INT32", "tensorShape": {"dim": [{"size": "2"}]}}}}}, {"name": "unknown_197", "op": "Const", "attr": {"dtype": {"type": "DT_FLOAT"}, "value": {"tensor": {"dtype": "DT_FLOAT", "tensorShape": {"dim": [{"size": "1"}, {"size": "1"}, {"size": "960"}, {"size": "240"}]}}}}}, {"name": "unknown_198", "op": "Const", "attr": {"dtype": {"type": "DT_FLOAT"}, "value": {"tensor": {"dtype": "DT_FLOAT", "tensorShape": {"dim": [{"size": "240"}]}}}}}, {"name": "unknown_199", "op": "Const", "attr": {"dtype": {"type": "DT_FLOAT"}, "value": {"tensor": {"dtype": "DT_FLOAT", "tensorShape": {"dim": [{"size": "1"}, {"size": "1"}, {"size": "240"}, {"size": "960"}]}}}}}, {"name": "unknown_200", "op": "Const", "attr": {"dtype": {"type": "DT_FLOAT"}, "value": {"tensor": {"dtype": "DT_FLOAT", "tensorShape": {"dim": [{"size": "960"}]}}}}}, {"name": "PartitionedCall/PartitionedCall/model/tf.__operators__.add_26/y", "op": "Const", "attr": {"value": {"tensor": {"dtype": "DT_FLOAT", "tensorShape": {}}}, "dtype": {"type": "DT_FLOAT"}}}, {"name": "unknown_196", "op": "Const", "attr": {"value": {"tensor": {"dtype": "DT_FLOAT", "tensorShape": {}}}, "dtype": {"type": "DT_FLOAT"}}}, {"name": "unknown_195", "op": "Const", "attr": {"dtype": {"type": "DT_FLOAT"}, "value": {"tensor": {"dtype": "DT_FLOAT", "tensorShape": {}}}}}, {"name": "unknown_194", "op": "Const", "attr": {"value": {"tensor": {"dtype": "DT_FLOAT", "tensorShape": {}}}, "dtype": {"type": "DT_FLOAT"}}}, {"name": "unknown_191", "op": "Const", "attr": {"value": {"tensor": {"dtype": "DT_FLOAT", "tensorShape": {}}}, "dtype": {"type": "DT_FLOAT"}}}, {"name": "unknown_190", "op": "Const", "attr": {"value": {"tensor": {"dtype": "DT_FLOAT", "tensorShape": {}}}, "dtype": {"type": "DT_FLOAT"}}}, {"name": "unknown_189", "op": "Const", "attr": {"value": {"tensor": {"dtype": "DT_FLOAT", "tensorShape": {}}}, "dtype": {"type": "DT_FLOAT"}}}, {"name": "unknown_187", "op": "Const", "attr": {"dtype": {"type": "DT_FLOAT"}, "value": {"tensor": {"dtype": "DT_FLOAT", "tensorShape": {"dim": [{"size": "1"}, {"size": "1"}, {"size": "160"}, {"size": "960"}]}}}}}, {"name": "unknown_188", "op": "Const", "attr": {"dtype": {"type": "DT_FLOAT"}, "value": {"tensor": {"dtype": "DT_FLOAT", "tensorShape": {"dim": [{"size": "960"}]}}}}}, {"name": "PartitionedCall/PartitionedCall/model/tf.__operators__.add_24/y", "op": "Const", "attr": {"dtype": {"type": "DT_FLOAT"}, "value": {"tensor": {"dtype": "DT_FLOAT", "tensorShape": {}}}}}, {"name": "PartitionedCall/PartitionedCall/model/tf.compat.v1.nn.depthwise_conv2d_14/depthwise/SpaceToBatchND/block_shape", "op": "Const", "attr": {"value": {"tensor": {"dtype": "DT_INT32", "tensorShape": {"dim": [{"size": "2"}]}}}, "dtype": {"type": "DT_INT32"}}}, {"name": "PartitionedCall/PartitionedCall/model/tf.compat.v1.nn.depthwise_conv2d_14/depthwise/SpaceToBatchND/paddings", "op": "Const", "attr": {"value": {"tensor": {"dtype": "DT_INT32", "tensorShape": {"dim": [{"size": "2"}, {"size": "2"}]}}}, "dtype": {"type": "DT_INT32"}}}, {"name": "unknown_192", "op": "Const", "attr": {"dtype": {"type": "DT_FLOAT"}, "value": {"tensor": {"dtype": "DT_FLOAT", "tensorShape": {"dim": [{"size": "5"}, {"size": "5"}, {"size": "960"}, {"size": "1"}]}}}}}, {"name": "PartitionedCall/PartitionedCall/model/tf.compat.v1.nn.depthwise_conv2d_14/depthwise/BatchToSpaceND/block_shape", "op": "Const", "attr": {"dtype": {"type": "DT_INT32"}, "value": {"tensor": {"dtype": "DT_INT32", "tensorShape": {"dim": [{"size": "2"}]}}}}}, {"name": "PartitionedCall/PartitionedCall/model/tf.compat.v1.nn.depthwise_conv2d_14/depthwise/BatchToSpaceND/crops", "op": "Const", "attr": {"value": {"tensor": {"dtype": "DT_INT32", "tensorShape": {"dim": [{"size": "2"}, {"size": "2"}]}}}, "dtype": {"type": "DT_INT32"}}}, {"name": "unknown_193", "op": "Const", "attr": {"dtype": {"type": "DT_FLOAT"}, "value": {"tensor": {"dtype": "DT_FLOAT", "tensorShape": {"dim": [{"size": "960"}]}}}}}, {"name": "PartitionedCall/PartitionedCall/model/tf.__operators__.add_25/y", "op": "Const", "attr": {"value": {"tensor": {"dtype": "DT_FLOAT", "tensorShape": {}}}, "dtype": {"type": "DT_FLOAT"}}}, {"name": "unknown_204", "op": "Const", "attr": {"dtype": {"type": "DT_FLOAT"}, "value": {"tensor": {"dtype": "DT_FLOAT", "tensorShape": {"dim": [{"size": "1"}, {"size": "1"}, {"size": "960"}, {"size": "160"}]}}}}}, {"name": "unknown_205", "op": "Const", "attr": {"value": {"tensor": {"dtype": "DT_FLOAT", "tensorShape": {"dim": [{"size": "160"}]}}}, "dtype": {"type": "DT_FLOAT"}}}, {"name": "unknown_184", "op": "Const", "attr": {"dtype": {"type": "DT_FLOAT"}, "value": {"tensor": {"dtype": "DT_FLOAT", "tensorShape": {}}}}}, {"name": "unknown_183", "op": "Const", "attr": {"value": {"tensor": {"dtype": "DT_FLOAT", "tensorShape": {}}}, "dtype": {"type": "DT_FLOAT"}}}, {"name": "unknown_182", "op": "Const", "attr": {"dtype": {"type": "DT_FLOAT"}, "value": {"tensor": {"dtype": "DT_FLOAT", "tensorShape": {}}}}}, {"name": "PartitionedCall/PartitionedCall/model/tf.math.reduce_mean_6/Mean/reduction_indices", "op": "Const", "attr": {"value": {"tensor": {"dtype": "DT_INT32", "tensorShape": {"dim": [{"size": "2"}]}}}, "dtype": {"type": "DT_INT32"}}}, {"name": "unknown_178", "op": "Const", "attr": {"value": {"tensor": {"dtype": "DT_FLOAT", "tensorShape": {"dim": [{"size": "1"}, {"size": "1"}, {"size": "960"}, {"size": "240"}]}}}, "dtype": {"type": "DT_FLOAT"}}}, {"name": "unknown_179", "op": "Const", "attr": {"dtype": {"type": "DT_FLOAT"}, "value": {"tensor": {"dtype": "DT_FLOAT", "tensorShape": {"dim": [{"size": "240"}]}}}}}, {"name": "unknown_180", "op": "Const", "attr": {"value": {"tensor": {"dtype": "DT_FLOAT", "tensorShape": {"dim": [{"size": "1"}, {"size": "1"}, {"size": "240"}, {"size": "960"}]}}}, "dtype": {"type": "DT_FLOAT"}}}, {"name": "unknown_181", "op": "Const", "attr": {"dtype": {"type": "DT_FLOAT"}, "value": {"tensor": {"dtype": "DT_FLOAT", "tensorShape": {"dim": [{"size": "960"}]}}}}}, {"name": "PartitionedCall/PartitionedCall/model/tf.__operators__.add_23/y", "op": "Const", "attr": {"value": {"tensor": {"dtype": "DT_FLOAT", "tensorShape": {}}}, "dtype": {"type": "DT_FLOAT"}}}, {"name": "unknown_177", "op": "Const", "attr": {"dtype": {"type": "DT_FLOAT"}, "value": {"tensor": {"dtype": "DT_FLOAT", "tensorShape": {}}}}}, {"name": "unknown_176", "op": "Const", "attr": {"dtype": {"type": "DT_FLOAT"}, "value": {"tensor": {"dtype": "DT_FLOAT", "tensorShape": {}}}}}, {"name": "unknown_175", "op": "Const", "attr": {"dtype": {"type": "DT_FLOAT"}, "value": {"tensor": {"dtype": "DT_FLOAT", "tensorShape": {}}}}}, {"name": "unknown_172", "op": "Const", "attr": {"dtype": {"type": "DT_FLOAT"}, "value": {"tensor": {"dtype": "DT_FLOAT", "tensorShape": {}}}}}, {"name": "unknown_171", "op": "Const", "attr": {"dtype": {"type": "DT_FLOAT"}, "value": {"tensor": {"dtype": "DT_FLOAT", "tensorShape": {}}}}}, {"name": "unknown_170", "op": "Const", "attr": {"value": {"tensor": {"dtype": "DT_FLOAT", "tensorShape": {}}}, "dtype": {"type": "DT_FLOAT"}}}, {"name": "unknown_168", "op": "Const", "attr": {"dtype": {"type": "DT_FLOAT"}, "value": {"tensor": {"dtype": "DT_FLOAT", "tensorShape": {"dim": [{"size": "1"}, {"size": "1"}, {"size": "160"}, {"size": "960"}]}}}}}, {"name": "unknown_169", "op": "Const", "attr": {"value": {"tensor": {"dtype": "DT_FLOAT", "tensorShape": {"dim": [{"size": "960"}]}}}, "dtype": {"type": "DT_FLOAT"}}}, {"name": "PartitionedCall/PartitionedCall/model/tf.__operators__.add_21/y", "op": "Const", "attr": {"dtype": {"type": "DT_FLOAT"}, "value": {"tensor": {"dtype": "DT_FLOAT", "tensorShape": {}}}}}, {"name": "PartitionedCall/PartitionedCall/model/tf.compat.v1.nn.depthwise_conv2d_13/depthwise/SpaceToBatchND/block_shape", "op": "Const", "attr": {"dtype": {"type": "DT_INT32"}, "value": {"tensor": {"dtype": "DT_INT32", "tensorShape": {"dim": [{"size": "2"}]}}}}}, {"name": "PartitionedCall/PartitionedCall/model/tf.compat.v1.nn.depthwise_conv2d_13/depthwise/SpaceToBatchND/paddings", "op": "Const", "attr": {"dtype": {"type": "DT_INT32"}, "value": {"tensor": {"dtype": "DT_INT32", "tensorShape": {"dim": [{"size": "2"}, {"size": "2"}]}}}}}, {"name": "unknown_173", "op": "Const", "attr": {"value": {"tensor": {"dtype": "DT_FLOAT", "tensorShape": {"dim": [{"size": "5"}, {"size": "5"}, {"size": "960"}, {"size": "1"}]}}}, "dtype": {"type": "DT_FLOAT"}}}, {"name": "PartitionedCall/PartitionedCall/model/tf.compat.v1.nn.depthwise_conv2d_13/depthwise/BatchToSpaceND/block_shape", "op": "Const", "attr": {"dtype": {"type": "DT_INT32"}, "value": {"tensor": {"dtype": "DT_INT32", "tensorShape": {"dim": [{"size": "2"}]}}}}}, {"name": "PartitionedCall/PartitionedCall/model/tf.compat.v1.nn.depthwise_conv2d_13/depthwise/BatchToSpaceND/crops", "op": "Const", "attr": {"value": {"tensor": {"dtype": "DT_INT32", "tensorShape": {"dim": [{"size": "2"}, {"size": "2"}]}}}, "dtype": {"type": "DT_INT32"}}}, {"name": "unknown_174", "op": "Const", "attr": {"value": {"tensor": {"dtype": "DT_FLOAT", "tensorShape": {"dim": [{"size": "960"}]}}}, "dtype": {"type": "DT_FLOAT"}}}, {"name": "PartitionedCall/PartitionedCall/model/tf.__operators__.add_22/y", "op": "Const", "attr": {"dtype": {"type": "DT_FLOAT"}, "value": {"tensor": {"dtype": "DT_FLOAT", "tensorShape": {}}}}}, {"name": "unknown_185", "op": "Const", "attr": {"value": {"tensor": {"dtype": "DT_FLOAT", "tensorShape": {"dim": [{"size": "1"}, {"size": "1"}, {"size": "960"}, {"size": "160"}]}}}, "dtype": {"type": "DT_FLOAT"}}}, {"name": "unknown_186", "op": "Const", "attr": {"value": {"tensor": {"dtype": "DT_FLOAT", "tensorShape": {"dim": [{"size": "160"}]}}}, "dtype": {"type": "DT_FLOAT"}}}, {"name": "unknown_165", "op": "Const", "attr": {"dtype": {"type": "DT_FLOAT"}, "value": {"tensor": {"dtype": "DT_FLOAT", "tensorShape": {}}}}}, {"name": "unknown_164", "op": "Const", "attr": {"value": {"tensor": {"dtype": "DT_FLOAT", "tensorShape": {}}}, "dtype": {"type": "DT_FLOAT"}}}, {"name": "unknown_163", "op": "Const", "attr": {"dtype": {"type": "DT_FLOAT"}, "value": {"tensor": {"dtype": "DT_FLOAT", "tensorShape": {}}}}}, {"name": "PartitionedCall/PartitionedCall/model/tf.math.reduce_mean_5/Mean/reduction_indices", "op": "Const", "attr": {"dtype": {"type": "DT_INT32"}, "value": {"tensor": {"dtype": "DT_INT32", "tensorShape": {"dim": [{"size": "2"}]}}}}}, {"name": "unknown_159", "op": "Const", "attr": {"dtype": {"type": "DT_FLOAT"}, "value": {"tensor": {"dtype": "DT_FLOAT", "tensorShape": {"dim": [{"size": "1"}, {"size": "1"}, {"size": "672"}, {"size": "168"}]}}}}}, {"name": "unknown_160", "op": "Const", "attr": {"dtype": {"type": "DT_FLOAT"}, "value": {"tensor": {"dtype": "DT_FLOAT", "tensorShape": {"dim": [{"size": "168"}]}}}}}, {"name": "unknown_161", "op": "Const", "attr": {"dtype": {"type": "DT_FLOAT"}, "value": {"tensor": {"dtype": "DT_FLOAT", "tensorShape": {"dim": [{"size": "1"}, {"size": "1"}, {"size": "168"}, {"size": "672"}]}}}}}, {"name": "unknown_162", "op": "Const", "attr": {"dtype": {"type": "DT_FLOAT"}, "value": {"tensor": {"dtype": "DT_FLOAT", "tensorShape": {"dim": [{"size": "672"}]}}}}}, {"name": "PartitionedCall/PartitionedCall/model/tf.__operators__.add_20/y", "op": "Const", "attr": {"dtype": {"type": "DT_FLOAT"}, "value": {"tensor": {"dtype": "DT_FLOAT", "tensorShape": {}}}}}, {"name": "unknown_158", "op": "Const", "attr": {"value": {"tensor": {"dtype": "DT_FLOAT", "tensorShape": {}}}, "dtype": {"type": "DT_FLOAT"}}}, {"name": "unknown_157", "op": "Const", "attr": {"dtype": {"type": "DT_FLOAT"}, "value": {"tensor": {"dtype": "DT_FLOAT", "tensorShape": {}}}}}, {"name": "unknown_156", "op": "Const", "attr": {"value": {"tensor": {"dtype": "DT_FLOAT", "tensorShape": {}}}, "dtype": {"type": "DT_FLOAT"}}}, {"name": "unknown_153", "op": "Const", "attr": {"value": {"tensor": {"dtype": "DT_FLOAT", "tensorShape": {}}}, "dtype": {"type": "DT_FLOAT"}}}, {"name": "unknown_152", "op": "Const", "attr": {"value": {"tensor": {"dtype": "DT_FLOAT", "tensorShape": {}}}, "dtype": {"type": "DT_FLOAT"}}}, {"name": "unknown_151", "op": "Const", "attr": {"value": {"tensor": {"dtype": "DT_FLOAT", "tensorShape": {}}}, "dtype": {"type": "DT_FLOAT"}}}, {"name": "unknown_148", "op": "Const", "attr": {"value": {"tensor": {"dtype": "DT_FLOAT", "tensorShape": {"dim": [{"size": "112"}]}}}, "dtype": {"type": "DT_FLOAT"}}}, {"name": "unknown_146", "op": "Const", "attr": {"value": {"tensor": {"dtype": "DT_FLOAT", "tensorShape": {}}}, "dtype": {"type": "DT_FLOAT"}}}, {"name": "unknown_145", "op": "Const", "attr": {"dtype": {"type": "DT_FLOAT"}, "value": {"tensor": {"dtype": "DT_FLOAT", "tensorShape": {}}}}}, {"name": "unknown_144", "op": "Const", "attr": {"dtype": {"type": "DT_FLOAT"}, "value": {"tensor": {"dtype": "DT_FLOAT", "tensorShape": {}}}}}, {"name": "PartitionedCall/PartitionedCall/model/tf.math.reduce_mean_4/Mean/reduction_indices", "op": "Const", "attr": {"dtype": {"type": "DT_INT32"}, "value": {"tensor": {"dtype": "DT_INT32", "tensorShape": {"dim": [{"size": "2"}]}}}}}, {"name": "unknown_140", "op": "Const", "attr": {"dtype": {"type": "DT_FLOAT"}, "value": {"tensor": {"dtype": "DT_FLOAT", "tensorShape": {"dim": [{"size": "1"}, {"size": "1"}, {"size": "672"}, {"size": "168"}]}}}}}, {"name": "unknown_141", "op": "Const", "attr": {"value": {"tensor": {"dtype": "DT_FLOAT", "tensorShape": {"dim": [{"size": "168"}]}}}, "dtype": {"type": "DT_FLOAT"}}}, {"name": "unknown_142", "op": "Const", "attr": {"dtype": {"type": "DT_FLOAT"}, "value": {"tensor": {"dtype": "DT_FLOAT", "tensorShape": {"dim": [{"size": "1"}, {"size": "1"}, {"size": "168"}, {"size": "672"}]}}}}}, {"name": "unknown_143", "op": "Const", "attr": {"value": {"tensor": {"dtype": "DT_FLOAT", "tensorShape": {"dim": [{"size": "672"}]}}}, "dtype": {"type": "DT_FLOAT"}}}, {"name": "PartitionedCall/PartitionedCall/model/tf.__operators__.add_17/y", "op": "Const", "attr": {"value": {"tensor": {"dtype": "DT_FLOAT", "tensorShape": {}}}, "dtype": {"type": "DT_FLOAT"}}}, {"name": "unknown_139", "op": "Const", "attr": {"dtype": {"type": "DT_FLOAT"}, "value": {"tensor": {"dtype": "DT_FLOAT", "tensorShape": {}}}}}, {"name": "unknown_138", "op": "Const", "attr": {"value": {"tensor": {"dtype": "DT_FLOAT", "tensorShape": {}}}, "dtype": {"type": "DT_FLOAT"}}}, {"name": "unknown_137", "op": "Const", "attr": {"dtype": {"type": "DT_FLOAT"}, "value": {"tensor": {"dtype": "DT_FLOAT", "tensorShape": {}}}}}, {"name": "unknown_134", "op": "Const", "attr": {"dtype": {"type": "DT_FLOAT"}, "value": {"tensor": {"dtype": "DT_FLOAT", "tensorShape": {}}}}}, {"name": "unknown_133", "op": "Const", "attr": {"value": {"tensor": {"dtype": "DT_FLOAT", "tensorShape": {}}}, "dtype": {"type": "DT_FLOAT"}}}, {"name": "unknown_132", "op": "Const", "attr": {"dtype": {"type": "DT_FLOAT"}, "value": {"tensor": {"dtype": "DT_FLOAT", "tensorShape": {}}}}}, {"name": "unknown_130", "op": "Const", "attr": {"dtype": {"type": "DT_FLOAT"}, "value": {"tensor": {"dtype": "DT_FLOAT", "tensorShape": {"dim": [{"size": "1"}, {"size": "1"}, {"size": "112"}, {"size": "672"}]}}}}}, {"name": "unknown_131", "op": "Const", "attr": {"dtype": {"type": "DT_FLOAT"}, "value": {"tensor": {"dtype": "DT_FLOAT", "tensorShape": {"dim": [{"size": "672"}]}}}}}, {"name": "PartitionedCall/PartitionedCall/model/tf.__operators__.add_15/y", "op": "Const", "attr": {"dtype": {"type": "DT_FLOAT"}, "value": {"tensor": {"dtype": "DT_FLOAT", "tensorShape": {}}}}}, {"name": "unknown_135", "op": "Const", "attr": {"value": {"tensor": {"dtype": "DT_FLOAT", "tensorShape": {"dim": [{"size": "3"}, {"size": "3"}, {"size": "672"}, {"size": "1"}]}}}, "dtype": {"type": "DT_FLOAT"}}}, {"name": "unknown_136", "op": "Const", "attr": {"dtype": {"type": "DT_FLOAT"}, "value": {"tensor": {"dtype": "DT_FLOAT", "tensorShape": {"dim": [{"size": "672"}]}}}}}, {"name": "PartitionedCall/PartitionedCall/model/tf.__operators__.add_16/y", "op": "Const", "attr": {"value": {"tensor": {"dtype": "DT_FLOAT", "tensorShape": {}}}, "dtype": {"type": "DT_FLOAT"}}}, {"name": "unknown_147", "op": "Const", "attr": {"value": {"tensor": {"dtype": "DT_FLOAT", "tensorShape": {"dim": [{"size": "1"}, {"size": "1"}, {"size": "672"}, {"size": "112"}]}}}, "dtype": {"type": "DT_FLOAT"}}}, {"name": "unknown_127", "op": "Const", "attr": {"value": {"tensor": {"dtype": "DT_FLOAT", "tensorShape": {}}}, "dtype": {"type": "DT_FLOAT"}}}, {"name": "unknown_126", "op": "Const", "attr": {"value": {"tensor": {"dtype": "DT_FLOAT", "tensorShape": {}}}, "dtype": {"type": "DT_FLOAT"}}}, {"name": "unknown_125", "op": "Const", "attr": {"dtype": {"type": "DT_FLOAT"}, "value": {"tensor": {"dtype": "DT_FLOAT", "tensorShape": {}}}}}, {"name": "PartitionedCall/PartitionedCall/model/tf.math.reduce_mean_3/Mean/reduction_indices", "op": "Const", "attr": {"dtype": {"type": "DT_INT32"}, "value": {"tensor": {"dtype": "DT_INT32", "tensorShape": {"dim": [{"size": "2"}]}}}}}, {"name": "unknown_121", "op": "Const", "attr": {"dtype": {"type": "DT_FLOAT"}, "value": {"tensor": {"dtype": "DT_FLOAT", "tensorShape": {"dim": [{"size": "1"}, {"size": "1"}, {"size": "480"}, {"size": "120"}]}}}}}, {"name": "unknown_122", "op": "Const", "attr": {"dtype": {"type": "DT_FLOAT"}, "value": {"tensor": {"dtype": "DT_FLOAT", "tensorShape": {"dim": [{"size": "120"}]}}}}}, {"name": "unknown_123", "op": "Const", "attr": {"value": {"tensor": {"dtype": "DT_FLOAT", "tensorShape": {"dim": [{"size": "1"}, {"size": "1"}, {"size": "120"}, {"size": "480"}]}}}, "dtype": {"type": "DT_FLOAT"}}}, {"name": "unknown_124", "op": "Const", "attr": {"dtype": {"type": "DT_FLOAT"}, "value": {"tensor": {"dtype": "DT_FLOAT", "tensorShape": {"dim": [{"size": "480"}]}}}}}, {"name": "PartitionedCall/PartitionedCall/model/tf.__operators__.add_14/y", "op": "Const", "attr": {"dtype": {"type": "DT_FLOAT"}, "value": {"tensor": {"dtype": "DT_FLOAT", "tensorShape": {}}}}}, {"name": "unknown_120", "op": "Const", "attr": {"value": {"tensor": {"dtype": "DT_FLOAT", "tensorShape": {}}}, "dtype": {"type": "DT_FLOAT"}}}, {"name": "unknown_119", "op": "Const", "attr": {"value": {"tensor": {"dtype": "DT_FLOAT", "tensorShape": {}}}, "dtype": {"type": "DT_FLOAT"}}}, {"name": "unknown_118", "op": "Const", "attr": {"value": {"tensor": {"dtype": "DT_FLOAT", "tensorShape": {}}}, "dtype": {"type": "DT_FLOAT"}}}, {"name": "unknown_115", "op": "Const", "attr": {"value": {"tensor": {"dtype": "DT_FLOAT", "tensorShape": {}}}, "dtype": {"type": "DT_FLOAT"}}}, {"name": "unknown_114", "op": "Const", "attr": {"value": {"tensor": {"dtype": "DT_FLOAT", "tensorShape": {}}}, "dtype": {"type": "DT_FLOAT"}}}, {"name": "unknown_113", "op": "Const", "attr": {"value": {"tensor": {"dtype": "DT_FLOAT", "tensorShape": {}}}, "dtype": {"type": "DT_FLOAT"}}}, {"name": "unknown_110", "op": "Const", "attr": {"dtype": {"type": "DT_FLOAT"}, "value": {"tensor": {"dtype": "DT_FLOAT", "tensorShape": {"dim": [{"size": "80"}]}}}}}, {"name": "unknown_108", "op": "Const", "attr": {"dtype": {"type": "DT_FLOAT"}, "value": {"tensor": {"dtype": "DT_FLOAT", "tensorShape": {}}}}}, {"name": "unknown_107", "op": "Const", "attr": {"value": {"tensor": {"dtype": "DT_FLOAT", "tensorShape": {}}}, "dtype": {"type": "DT_FLOAT"}}}, {"name": "unknown_106", "op": "Const", "attr": {"dtype": {"type": "DT_FLOAT"}, "value": {"tensor": {"dtype": "DT_FLOAT", "tensorShape": {}}}}}, {"name": "unknown_103", "op": "Const", "attr": {"value": {"tensor": {"dtype": "DT_FLOAT", "tensorShape": {}}}, "dtype": {"type": "DT_FLOAT"}}}, {"name": "unknown_102", "op": "Const", "attr": {"value": {"tensor": {"dtype": "DT_FLOAT", "tensorShape": {}}}, "dtype": {"type": "DT_FLOAT"}}}, {"name": "unknown_101", "op": "Const", "attr": {"value": {"tensor": {"dtype": "DT_FLOAT", "tensorShape": {}}}, "dtype": {"type": "DT_FLOAT"}}}, {"name": "unknown_99", "op": "Const", "attr": {"dtype": {"type": "DT_FLOAT"}, "value": {"tensor": {"dtype": "DT_FLOAT", "tensorShape": {"dim": [{"size": "1"}, {"size": "1"}, {"size": "80"}, {"size": "184"}]}}}}}, {"name": "unknown_100", "op": "Const", "attr": {"value": {"tensor": {"dtype": "DT_FLOAT", "tensorShape": {"dim": [{"size": "184"}]}}}, "dtype": {"type": "DT_FLOAT"}}}, {"name": "PartitionedCall/PartitionedCall/model/tf.__operators__.add_10/y", "op": "Const", "attr": {"dtype": {"type": "DT_FLOAT"}, "value": {"tensor": {"dtype": "DT_FLOAT", "tensorShape": {}}}}}, {"name": "unknown_104", "op": "Const", "attr": {"dtype": {"type": "DT_FLOAT"}, "value": {"tensor": {"dtype": "DT_FLOAT", "tensorShape": {"dim": [{"size": "3"}, {"size": "3"}, {"size": "184"}, {"size": "1"}]}}}}}, {"name": "unknown_105", "op": "Const", "attr": {"dtype": {"type": "DT_FLOAT"}, "value": {"tensor": {"dtype": "DT_FLOAT", "tensorShape": {"dim": [{"size": "184"}]}}}}}, {"name": "PartitionedCall/PartitionedCall/model/tf.__operators__.add_11/y", "op": "Const", "attr": {"value": {"tensor": {"dtype": "DT_FLOAT", "tensorShape": {}}}, "dtype": {"type": "DT_FLOAT"}}}, {"name": "unknown_109", "op": "Const", "attr": {"dtype": {"type": "DT_FLOAT"}, "value": {"tensor": {"dtype": "DT_FLOAT", "tensorShape": {"dim": [{"size": "1"}, {"size": "1"}, {"size": "184"}, {"size": "80"}]}}}}}, {"name": "unknown_98", "op": "Const", "attr": {"value": {"tensor": {"dtype": "DT_FLOAT", "tensorShape": {"dim": [{"size": "80"}]}}}, "dtype": {"type": "DT_FLOAT"}}}, {"name": "unknown_96", "op": "Const", "attr": {"dtype": {"type": "DT_FLOAT"}, "value": {"tensor": {"dtype": "DT_FLOAT", "tensorShape": {}}}}}, {"name": "unknown_95", "op": "Const", "attr": {"dtype": {"type": "DT_FLOAT"}, "value": {"tensor": {"dtype": "DT_FLOAT", "tensorShape": {}}}}}, {"name": "unknown_94", "op": "Const", "attr": {"value": {"tensor": {"dtype": "DT_FLOAT", "tensorShape": {}}}, "dtype": {"type": "DT_FLOAT"}}}, {"name": "unknown_91", "op": "Const", "attr": {"value": {"tensor": {"dtype": "DT_FLOAT", "tensorShape": {}}}, "dtype": {"type": "DT_FLOAT"}}}, {"name": "unknown_90", "op": "Const", "attr": {"dtype": {"type": "DT_FLOAT"}, "value": {"tensor": {"dtype": "DT_FLOAT", "tensorShape": {}}}}}, {"name": "unknown_89", "op": "Const", "attr": {"dtype": {"type": "DT_FLOAT"}, "value": {"tensor": {"dtype": "DT_FLOAT", "tensorShape": {}}}}}, {"name": "unknown_87", "op": "Const", "attr": {"value": {"tensor": {"dtype": "DT_FLOAT", "tensorShape": {"dim": [{"size": "1"}, {"size": "1"}, {"size": "80"}, {"size": "184"}]}}}, "dtype": {"type": "DT_FLOAT"}}}, {"name": "unknown_88", "op": "Const", "attr": {"value": {"tensor": {"dtype": "DT_FLOAT", "tensorShape": {"dim": [{"size": "184"}]}}}, "dtype": {"type": "DT_FLOAT"}}}, {"name": "PartitionedCall/PartitionedCall/model/tf.__operators__.add_8/y", "op": "Const", "attr": {"value": {"tensor": {"dtype": "DT_FLOAT", "tensorShape": {}}}, "dtype": {"type": "DT_FLOAT"}}}, {"name": "unknown_92", "op": "Const", "attr": {"value": {"tensor": {"dtype": "DT_FLOAT", "tensorShape": {"dim": [{"size": "3"}, {"size": "3"}, {"size": "184"}, {"size": "1"}]}}}, "dtype": {"type": "DT_FLOAT"}}}, {"name": "unknown_93", "op": "Const", "attr": {"dtype": {"type": "DT_FLOAT"}, "value": {"tensor": {"dtype": "DT_FLOAT", "tensorShape": {"dim": [{"size": "184"}]}}}}}, {"name": "PartitionedCall/PartitionedCall/model/tf.__operators__.add_9/y", "op": "Const", "attr": {"dtype": {"type": "DT_FLOAT"}, "value": {"tensor": {"dtype": "DT_FLOAT", "tensorShape": {}}}}}, {"name": "unknown_97", "op": "Const", "attr": {"value": {"tensor": {"dtype": "DT_FLOAT", "tensorShape": {"dim": [{"size": "1"}, {"size": "1"}, {"size": "184"}, {"size": "80"}]}}}, "dtype": {"type": "DT_FLOAT"}}}, {"name": "unknown_86", "op": "Const", "attr": {"dtype": {"type": "DT_FLOAT"}, "value": {"tensor": {"dtype": "DT_FLOAT", "tensorShape": {"dim": [{"size": "80"}]}}}}}, {"name": "unknown_84", "op": "Const", "attr": {"dtype": {"type": "DT_FLOAT"}, "value": {"tensor": {"dtype": "DT_FLOAT", "tensorShape": {}}}}}, {"name": "unknown_83", "op": "Const", "attr": {"value": {"tensor": {"dtype": "DT_FLOAT", "tensorShape": {}}}, "dtype": {"type": "DT_FLOAT"}}}, {"name": "unknown_82", "op": "Const", "attr": {"value": {"tensor": {"dtype": "DT_FLOAT", "tensorShape": {}}}, "dtype": {"type": "DT_FLOAT"}}}, {"name": "unknown_79", "op": "Const", "attr": {"value": {"tensor": {"dtype": "DT_FLOAT", "tensorShape": {}}}, "dtype": {"type": "DT_FLOAT"}}}, {"name": "unknown_78", "op": "Const", "attr": {"dtype": {"type": "DT_FLOAT"}, "value": {"tensor": {"dtype": "DT_FLOAT", "tensorShape": {}}}}}, {"name": "unknown_77", "op": "Const", "attr": {"value": {"tensor": {"dtype": "DT_FLOAT", "tensorShape": {}}}, "dtype": {"type": "DT_FLOAT"}}}, {"name": "unknown_75", "op": "Const", "attr": {"dtype": {"type": "DT_FLOAT"}, "value": {"tensor": {"dtype": "DT_FLOAT", "tensorShape": {"dim": [{"size": "1"}, {"size": "1"}, {"size": "80"}, {"size": "200"}]}}}}}, {"name": "unknown_76", "op": "Const", "attr": {"value": {"tensor": {"dtype": "DT_FLOAT", "tensorShape": {"dim": [{"size": "200"}]}}}, "dtype": {"type": "DT_FLOAT"}}}, {"name": "PartitionedCall/PartitionedCall/model/tf.__operators__.add_6/y", "op": "Const", "attr": {"value": {"tensor": {"dtype": "DT_FLOAT", "tensorShape": {}}}, "dtype": {"type": "DT_FLOAT"}}}, {"name": "unknown_80", "op": "Const", "attr": {"dtype": {"type": "DT_FLOAT"}, "value": {"tensor": {"dtype": "DT_FLOAT", "tensorShape": {"dim": [{"size": "3"}, {"size": "3"}, {"size": "200"}, {"size": "1"}]}}}}}, {"name": "unknown_81", "op": "Const", "attr": {"value": {"tensor": {"dtype": "DT_FLOAT", "tensorShape": {"dim": [{"size": "200"}]}}}, "dtype": {"type": "DT_FLOAT"}}}, {"name": "PartitionedCall/PartitionedCall/model/tf.__operators__.add_7/y", "op": "Const", "attr": {"value": {"tensor": {"dtype": "DT_FLOAT", "tensorShape": {}}}, "dtype": {"type": "DT_FLOAT"}}}, {"name": "unknown_85", "op": "Const", "attr": {"value": {"tensor": {"dtype": "DT_FLOAT", "tensorShape": {"dim": [{"size": "1"}, {"size": "1"}, {"size": "200"}, {"size": "80"}]}}}, "dtype": {"type": "DT_FLOAT"}}}, {"name": "unknown_72", "op": "Const", "attr": {"value": {"tensor": {"dtype": "DT_FLOAT", "tensorShape": {}}}, "dtype": {"type": "DT_FLOAT"}}}, {"name": "unknown_71", "op": "Const", "attr": {"dtype": {"type": "DT_FLOAT"}, "value": {"tensor": {"dtype": "DT_FLOAT", "tensorShape": {}}}}}, {"name": "unknown_70", "op": "Const", "attr": {"value": {"tensor": {"dtype": "DT_FLOAT", "tensorShape": {}}}, "dtype": {"type": "DT_FLOAT"}}}, {"name": "unknown_66", "op": "Const", "attr": {"value": {"tensor": {"dtype": "DT_FLOAT", "tensorShape": {}}}, "dtype": {"type": "DT_FLOAT"}}}, {"name": "unknown_65", "op": "Const", "attr": {"value": {"tensor": {"dtype": "DT_FLOAT", "tensorShape": {}}}, "dtype": {"type": "DT_FLOAT"}}}, {"name": "unknown_64", "op": "Const", "attr": {"value": {"tensor": {"dtype": "DT_FLOAT", "tensorShape": {}}}, "dtype": {"type": "DT_FLOAT"}}}, {"name": "unknown_61", "op": "Const", "attr": {"value": {"tensor": {"dtype": "DT_FLOAT", "tensorShape": {"dim": [{"size": "40"}]}}}, "dtype": {"type": "DT_FLOAT"}}}, {"name": "unknown_59", "op": "Const", "attr": {"value": {"tensor": {"dtype": "DT_FLOAT", "tensorShape": {}}}, "dtype": {"type": "DT_FLOAT"}}}, {"name": "unknown_58", "op": "Const", "attr": {"value": {"tensor": {"dtype": "DT_FLOAT", "tensorShape": {}}}, "dtype": {"type": "DT_FLOAT"}}}, {"name": "unknown_57", "op": "Const", "attr": {"value": {"tensor": {"dtype": "DT_FLOAT", "tensorShape": {}}}, "dtype": {"type": "DT_FLOAT"}}}, {"name": "PartitionedCall/PartitionedCall/model/tf.math.reduce_mean_2/Mean/reduction_indices", "op": "Const", "attr": {"dtype": {"type": "DT_INT32"}, "value": {"tensor": {"dtype": "DT_INT32", "tensorShape": {"dim": [{"size": "2"}]}}}}}, {"name": "unknown_53", "op": "Const", "attr": {"dtype": {"type": "DT_FLOAT"}, "value": {"tensor": {"dtype": "DT_FLOAT", "tensorShape": {"dim": [{"size": "1"}, {"size": "1"}, {"size": "120"}, {"size": "32"}]}}}}}, {"name": "unknown_54", "op": "Const", "attr": {"value": {"tensor": {"dtype": "DT_FLOAT", "tensorShape": {"dim": [{"size": "32"}]}}}, "dtype": {"type": "DT_FLOAT"}}}, {"name": "unknown_55", "op": "Const", "attr": {"value": {"tensor": {"dtype": "DT_FLOAT", "tensorShape": {"dim": [{"size": "1"}, {"size": "1"}, {"size": "32"}, {"size": "120"}]}}}, "dtype": {"type": "DT_FLOAT"}}}, {"name": "unknown_56", "op": "Const", "attr": {"dtype": {"type": "DT_FLOAT"}, "value": {"tensor": {"dtype": "DT_FLOAT", "tensorShape": {"dim": [{"size": "120"}]}}}}}, {"name": "PartitionedCall/PartitionedCall/model/tf.__operators__.add_3/y", "op": "Const", "attr": {"dtype": {"type": "DT_FLOAT"}, "value": {"tensor": {"dtype": "DT_FLOAT", "tensorShape": {}}}}}, {"name": "unknown_49", "op": "Const", "attr": {"dtype": {"type": "DT_FLOAT"}, "value": {"tensor": {"dtype": "DT_FLOAT", "tensorShape": {"dim": [{"size": "1"}, {"size": "1"}, {"size": "40"}, {"size": "120"}]}}}}}, {"name": "unknown_50", "op": "Const", "attr": {"dtype": {"type": "DT_FLOAT"}, "value": {"tensor": {"dtype": "DT_FLOAT", "tensorShape": {"dim": [{"size": "120"}]}}}}}, {"name": "unknown_51", "op": "Const", "attr": {"dtype": {"type": "DT_FLOAT"}, "value": {"tensor": {"dtype": "DT_FLOAT", "tensorShape": {"dim": [{"size": "5"}, {"size": "5"}, {"size": "120"}, {"size": "1"}]}}}}}, {"name": "unknown_52", "op": "Const", "attr": {"value": {"tensor": {"dtype": "DT_FLOAT", "tensorShape": {"dim": [{"size": "120"}]}}}, "dtype": {"type": "DT_FLOAT"}}}, {"name": "unknown_60", "op": "Const", "attr": {"value": {"tensor": {"dtype": "DT_FLOAT", "tensorShape": {"dim": [{"size": "1"}, {"size": "1"}, {"size": "120"}, {"size": "40"}]}}}, "dtype": {"type": "DT_FLOAT"}}}, {"name": "unknown_48", "op": "Const", "attr": {"dtype": {"type": "DT_FLOAT"}, "value": {"tensor": {"dtype": "DT_FLOAT", "tensorShape": {"dim": [{"size": "40"}]}}}}}, {"name": "unknown_46", "op": "Const", "attr": {"value": {"tensor": {"dtype": "DT_FLOAT", "tensorShape": {}}}, "dtype": {"type": "DT_FLOAT"}}}, {"name": "unknown_45", "op": "Const", "attr": {"value": {"tensor": {"dtype": "DT_FLOAT", "tensorShape": {}}}, "dtype": {"type": "DT_FLOAT"}}}, {"name": "unknown_44", "op": "Const", "attr": {"value": {"tensor": {"dtype": "DT_FLOAT", "tensorShape": {}}}, "dtype": {"type": "DT_FLOAT"}}}, {"name": "PartitionedCall/PartitionedCall/model/tf.math.reduce_mean_1/Mean/reduction_indices", "op": "Const", "attr": {"dtype": {"type": "DT_INT32"}, "value": {"tensor": {"dtype": "DT_INT32", "tensorShape": {"dim": [{"size": "2"}]}}}}}, {"name": "unknown_40", "op": "Const", "attr": {"dtype": {"type": "DT_FLOAT"}, "value": {"tensor": {"dtype": "DT_FLOAT", "tensorShape": {"dim": [{"size": "1"}, {"size": "1"}, {"size": "120"}, {"size": "32"}]}}}}}, {"name": "unknown_41", "op": "Const", "attr": {"dtype": {"type": "DT_FLOAT"}, "value": {"tensor": {"dtype": "DT_FLOAT", "tensorShape": {"dim": [{"size": "32"}]}}}}}, {"name": "unknown_42", "op": "Const", "attr": {"value": {"tensor": {"dtype": "DT_FLOAT", "tensorShape": {"dim": [{"size": "1"}, {"size": "1"}, {"size": "32"}, {"size": "120"}]}}}, "dtype": {"type": "DT_FLOAT"}}}, {"name": "unknown_43", "op": "Const", "attr": {"dtype": {"type": "DT_FLOAT"}, "value": {"tensor": {"dtype": "DT_FLOAT", "tensorShape": {"dim": [{"size": "120"}]}}}}}, {"name": "PartitionedCall/PartitionedCall/model/tf.__operators__.add_2/y", "op": "Const", "attr": {"dtype": {"type": "DT_FLOAT"}, "value": {"tensor": {"dtype": "DT_FLOAT", "tensorShape": {}}}}}, {"name": "unknown_36", "op": "Const", "attr": {"dtype": {"type": "DT_FLOAT"}, "value": {"tensor": {"dtype": "DT_FLOAT", "tensorShape": {"dim": [{"size": "1"}, {"size": "1"}, {"size": "40"}, {"size": "120"}]}}}}}, {"name": "unknown_37", "op": "Const", "attr": {"dtype": {"type": "DT_FLOAT"}, "value": {"tensor": {"dtype": "DT_FLOAT", "tensorShape": {"dim": [{"size": "120"}]}}}}}, {"name": "unknown_38", "op": "Const", "attr": {"dtype": {"type": "DT_FLOAT"}, "value": {"tensor": {"dtype": "DT_FLOAT", "tensorShape": {"dim": [{"size": "5"}, {"size": "5"}, {"size": "120"}, {"size": "1"}]}}}}}, {"name": "unknown_39", "op": "Const", "attr": {"dtype": {"type": "DT_FLOAT"}, "value": {"tensor": {"dtype": "DT_FLOAT", "tensorShape": {"dim": [{"size": "120"}]}}}}}, {"name": "unknown_47", "op": "Const", "attr": {"value": {"tensor": {"dtype": "DT_FLOAT", "tensorShape": {"dim": [{"size": "1"}, {"size": "1"}, {"size": "120"}, {"size": "40"}]}}}, "dtype": {"type": "DT_FLOAT"}}}, {"name": "unknown_33", "op": "Const", "attr": {"dtype": {"type": "DT_FLOAT"}, "value": {"tensor": {"dtype": "DT_FLOAT", "tensorShape": {}}}}}, {"name": "unknown_32", "op": "Const", "attr": {"value": {"tensor": {"dtype": "DT_FLOAT", "tensorShape": {}}}, "dtype": {"type": "DT_FLOAT"}}}, {"name": "unknown_31", "op": "Const", "attr": {"dtype": {"type": "DT_FLOAT"}, "value": {"tensor": {"dtype": "DT_FLOAT", "tensorShape": {}}}}}, {"name": "PartitionedCall/PartitionedCall/model/tf.math.reduce_mean/Mean/reduction_indices", "op": "Const", "attr": {"value": {"tensor": {"dtype": "DT_INT32", "tensorShape": {"dim": [{"size": "2"}]}}}, "dtype": {"type": "DT_INT32"}}}, {"name": "unknown_27", "op": "Const", "attr": {"value": {"tensor": {"dtype": "DT_FLOAT", "tensorShape": {"dim": [{"size": "1"}, {"size": "1"}, {"size": "72"}, {"size": "24"}]}}}, "dtype": {"type": "DT_FLOAT"}}}, {"name": "unknown_28", "op": "Const", "attr": {"value": {"tensor": {"dtype": "DT_FLOAT", "tensorShape": {"dim": [{"size": "24"}]}}}, "dtype": {"type": "DT_FLOAT"}}}, {"name": "unknown_29", "op": "Const", "attr": {"dtype": {"type": "DT_FLOAT"}, "value": {"tensor": {"dtype": "DT_FLOAT", "tensorShape": {"dim": [{"size": "1"}, {"size": "1"}, {"size": "24"}, {"size": "72"}]}}}}}, {"name": "unknown_30", "op": "Const", "attr": {"dtype": {"type": "DT_FLOAT"}, "value": {"tensor": {"dtype": "DT_FLOAT", "tensorShape": {"dim": [{"size": "72"}]}}}}}, {"name": "PartitionedCall/PartitionedCall/model/tf.__operators__.add_1/y", "op": "Const", "attr": {"dtype": {"type": "DT_FLOAT"}, "value": {"tensor": {"dtype": "DT_FLOAT", "tensorShape": {}}}}}, {"name": "unknown_21", "op": "Const", "attr": {"dtype": {"type": "DT_FLOAT"}, "value": {"tensor": {"dtype": "DT_FLOAT", "tensorShape": {"dim": [{"size": "24"}]}}}}}, {"name": "unknown_16", "op": "Const", "attr": {"value": {"tensor": {"dtype": "DT_FLOAT", "tensorShape": {"dim": [{"size": "1"}, {"size": "1"}, {"size": "24"}, {"size": "72"}]}}}, "dtype": {"type": "DT_FLOAT"}}}, {"name": "unknown_17", "op": "Const", "attr": {"dtype": {"type": "DT_FLOAT"}, "value": {"tensor": {"dtype": "DT_FLOAT", "tensorShape": {"dim": [{"size": "72"}]}}}}}, {"name": "unknown_18", "op": "Const", "attr": {"dtype": {"type": "DT_FLOAT"}, "value": {"tensor": {"dtype": "DT_FLOAT", "tensorShape": {"dim": [{"size": "3"}, {"size": "3"}, {"size": "72"}, {"size": "1"}]}}}}}, {"name": "unknown_19", "op": "Const", "attr": {"value": {"tensor": {"dtype": "DT_FLOAT", "tensorShape": {"dim": [{"size": "72"}]}}}, "dtype": {"type": "DT_FLOAT"}}}, {"name": "unknown_20", "op": "Const", "attr": {"value": {"tensor": {"dtype": "DT_FLOAT", "tensorShape": {"dim": [{"size": "1"}, {"size": "1"}, {"size": "72"}, {"size": "24"}]}}}, "dtype": {"type": "DT_FLOAT"}}}, {"name": "unknown_8", "op": "Const", "attr": {"value": {"tensor": {"dtype": "DT_FLOAT", "tensorShape": {"dim": [{"size": "16"}]}}}, "dtype": {"type": "DT_FLOAT"}}}, {"name": "unknown_5", "op": "Const", "attr": {"dtype": {"type": "DT_FLOAT"}, "value": {"tensor": {"dtype": "DT_FLOAT", "tensorShape": {"dim": [{"size": "3"}, {"size": "3"}, {"size": "16"}, {"size": "1"}]}}}}}, {"name": "unknown_6", "op": "Const", "attr": {"dtype": {"type": "DT_FLOAT"}, "value": {"tensor": {"dtype": "DT_FLOAT", "tensorShape": {"dim": [{"size": "16"}]}}}}}, {"name": "unknown_7", "op": "Const", "attr": {"value": {"tensor": {"dtype": "DT_FLOAT", "tensorShape": {"dim": [{"size": "1"}, {"size": "1"}, {"size": "16"}, {"size": "16"}]}}}, "dtype": {"type": "DT_FLOAT"}}}, {"name": "unknown_4", "op": "Const", "attr": {"value": {"tensor": {"dtype": "DT_FLOAT", "tensorShape": {}}}, "dtype": {"type": "DT_FLOAT"}}}, {"name": "unknown_3", "op": "Const", "attr": {"value": {"tensor": {"dtype": "DT_FLOAT", "tensorShape": {}}}, "dtype": {"type": "DT_FLOAT"}}}, {"name": "unknown_2", "op": "Const", "attr": {"dtype": {"type": "DT_FLOAT"}, "value": {"tensor": {"dtype": "DT_FLOAT", "tensorShape": {}}}}}, {"name": "unknown", "op": "Const", "attr": {"value": {"tensor": {"dtype": "DT_INT32", "tensorShape": {"dim": [{"size": "4"}, {"size": "2"}]}}}, "dtype": {"type": "DT_INT32"}}}, {"name": "unknown_0", "op": "Const", "attr": {"value": {"tensor": {"dtype": "DT_FLOAT", "tensorShape": {"dim": [{"size": "3"}, {"size": "3"}, {"size": "3"}, {"size": "16"}]}}}, "dtype": {"type": "DT_FLOAT"}}}, {"name": "unknown_1", "op": "Const", "attr": {"value": {"tensor": {"dtype": "DT_FLOAT", "tensorShape": {"dim": [{"size": "16"}]}}}, "dtype": {"type": "DT_FLOAT"}}}, {"name": "PartitionedCall/PartitionedCall/model/tf.__operators__.add/y", "op": "Const", "attr": {"value": {"tensor": {"dtype": "DT_FLOAT", "tensorShape": {}}}, "dtype": {"type": "DT_FLOAT"}}}, {"name": "unknown_9", "op": "Const", "attr": {"dtype": {"type": "DT_FLOAT"}, "value": {"tensor": {"dtype": "DT_FLOAT", "tensorShape": {"dim": [{"size": "1"}, {"size": "1"}, {"size": "16"}, {"size": "64"}]}}}}}, {"name": "unknown_10", "op": "Const", "attr": {"value": {"tensor": {"dtype": "DT_FLOAT", "tensorShape": {"dim": [{"size": "64"}]}}}, "dtype": {"type": "DT_FLOAT"}}}, {"name": "unknown_11", "op": "Const", "attr": {"dtype": {"type": "DT_INT32"}, "value": {"tensor": {"dtype": "DT_INT32", "tensorShape": {"dim": [{"size": "4"}, {"size": "2"}]}}}}}, {"name": "unknown_12", "op": "Const", "attr": {"dtype": {"type": "DT_FLOAT"}, "value": {"tensor": {"dtype": "DT_FLOAT", "tensorShape": {"dim": [{"size": "3"}, {"size": "3"}, {"size": "64"}, {"size": "1"}]}}}}}, {"name": "unknown_13", "op": "Const", "attr": {"value": {"tensor": {"dtype": "DT_FLOAT", "tensorShape": {"dim": [{"size": "64"}]}}}, "dtype": {"type": "DT_FLOAT"}}}, {"name": "unknown_14", "op": "Const", "attr": {"dtype": {"type": "DT_FLOAT"}, "value": {"tensor": {"dtype": "DT_FLOAT", "tensorShape": {"dim": [{"size": "1"}, {"size": "1"}, {"size": "64"}, {"size": "24"}]}}}}}, {"name": "unknown_15", "op": "Const", "attr": {"value": {"tensor": {"dtype": "DT_FLOAT", "tensorShape": {"dim": [{"size": "24"}]}}}, "dtype": {"type": "DT_FLOAT"}}}, {"name": "unknown_22", "op": "Const", "attr": {"value": {"tensor": {"dtype": "DT_FLOAT", "tensorShape": {"dim": [{"size": "1"}, {"size": "1"}, {"size": "24"}, {"size": "72"}]}}}, "dtype": {"type": "DT_FLOAT"}}}, {"name": "unknown_23", "op": "Const", "attr": {"value": {"tensor": {"dtype": "DT_FLOAT", "tensorShape": {"dim": [{"size": "72"}]}}}, "dtype": {"type": "DT_FLOAT"}}}, {"name": "unknown_24", "op": "Const", "attr": {"dtype": {"type": "DT_INT32"}, "value": {"tensor": {"dtype": "DT_INT32", "tensorShape": {"dim": [{"size": "4"}, {"size": "2"}]}}}}}, {"name": "unknown_25", "op": "Const", "attr": {"dtype": {"type": "DT_FLOAT"}, "value": {"tensor": {"dtype": "DT_FLOAT", "tensorShape": {"dim": [{"size": "5"}, {"size": "5"}, {"size": "72"}, {"size": "1"}]}}}}}, {"name": "unknown_26", "op": "Const", "attr": {"value": {"tensor": {"dtype": "DT_FLOAT", "tensorShape": {"dim": [{"size": "72"}]}}}, "dtype": {"type": "DT_FLOAT"}}}, {"name": "unknown_34", "op": "Const", "attr": {"value": {"tensor": {"dtype": "DT_FLOAT", "tensorShape": {"dim": [{"size": "1"}, {"size": "1"}, {"size": "72"}, {"size": "40"}]}}}, "dtype": {"type": "DT_FLOAT"}}}, {"name": "unknown_35", "op": "Const", "attr": {"value": {"tensor": {"dtype": "DT_FLOAT", "tensorShape": {"dim": [{"size": "40"}]}}}, "dtype": {"type": "DT_FLOAT"}}}, {"name": "unknown_62", "op": "Const", "attr": {"value": {"tensor": {"dtype": "DT_FLOAT", "tensorShape": {"dim": [{"size": "1"}, {"size": "1"}, {"size": "40"}, {"size": "240"}]}}}, "dtype": {"type": "DT_FLOAT"}}}, {"name": "unknown_63", "op": "Const", "attr": {"dtype": {"type": "DT_FLOAT"}, "value": {"tensor": {"dtype": "DT_FLOAT", "tensorShape": {"dim": [{"size": "240"}]}}}}}, {"name": "PartitionedCall/PartitionedCall/model/tf.__operators__.add_4/y", "op": "Const", "attr": {"value": {"tensor": {"dtype": "DT_FLOAT", "tensorShape": {}}}, "dtype": {"type": "DT_FLOAT"}}}, {"name": "unknown_67", "op": "Const", "attr": {"value": {"tensor": {"dtype": "DT_INT32", "tensorShape": {"dim": [{"size": "4"}, {"size": "2"}]}}}, "dtype": {"type": "DT_INT32"}}}, {"name": "unknown_68", "op": "Const", "attr": {"dtype": {"type": "DT_FLOAT"}, "value": {"tensor": {"dtype": "DT_FLOAT", "tensorShape": {"dim": [{"size": "3"}, {"size": "3"}, {"size": "240"}, {"size": "1"}]}}}}}, {"name": "unknown_69", "op": "Const", "attr": {"dtype": {"type": "DT_FLOAT"}, "value": {"tensor": {"dtype": "DT_FLOAT", "tensorShape": {"dim": [{"size": "240"}]}}}}}, {"name": "PartitionedCall/PartitionedCall/model/tf.__operators__.add_5/y", "op": "Const", "attr": {"dtype": {"type": "DT_FLOAT"}, "value": {"tensor": {"dtype": "DT_FLOAT", "tensorShape": {}}}}}, {"name": "unknown_73", "op": "Const", "attr": {"dtype": {"type": "DT_FLOAT"}, "value": {"tensor": {"dtype": "DT_FLOAT", "tensorShape": {"dim": [{"size": "1"}, {"size": "1"}, {"size": "240"}, {"size": "80"}]}}}}}, {"name": "unknown_74", "op": "Const", "attr": {"dtype": {"type": "DT_FLOAT"}, "value": {"tensor": {"dtype": "DT_FLOAT", "tensorShape": {"dim": [{"size": "80"}]}}}}}, {"name": "unknown_111", "op": "Const", "attr": {"value": {"tensor": {"dtype": "DT_FLOAT", "tensorShape": {"dim": [{"size": "1"}, {"size": "1"}, {"size": "80"}, {"size": "480"}]}}}, "dtype": {"type": "DT_FLOAT"}}}, {"name": "unknown_112", "op": "Const", "attr": {"value": {"tensor": {"dtype": "DT_FLOAT", "tensorShape": {"dim": [{"size": "480"}]}}}, "dtype": {"type": "DT_FLOAT"}}}, {"name": "PartitionedCall/PartitionedCall/model/tf.__operators__.add_12/y", "op": "Const", "attr": {"dtype": {"type": "DT_FLOAT"}, "value": {"tensor": {"dtype": "DT_FLOAT", "tensorShape": {}}}}}, {"name": "unknown_116", "op": "Const", "attr": {"dtype": {"type": "DT_FLOAT"}, "value": {"tensor": {"dtype": "DT_FLOAT", "tensorShape": {"dim": [{"size": "3"}, {"size": "3"}, {"size": "480"}, {"size": "1"}]}}}}}, {"name": "unknown_117", "op": "Const", "attr": {"dtype": {"type": "DT_FLOAT"}, "value": {"tensor": {"dtype": "DT_FLOAT", "tensorShape": {"dim": [{"size": "480"}]}}}}}, {"name": "PartitionedCall/PartitionedCall/model/tf.__operators__.add_13/y", "op": "Const", "attr": {"value": {"tensor": {"dtype": "DT_FLOAT", "tensorShape": {}}}, "dtype": {"type": "DT_FLOAT"}}}, {"name": "unknown_128", "op": "Const", "attr": {"value": {"tensor": {"dtype": "DT_FLOAT", "tensorShape": {"dim": [{"size": "1"}, {"size": "1"}, {"size": "480"}, {"size": "112"}]}}}, "dtype": {"type": "DT_FLOAT"}}}, {"name": "unknown_129", "op": "Const", "attr": {"dtype": {"type": "DT_FLOAT"}, "value": {"tensor": {"dtype": "DT_FLOAT", "tensorShape": {"dim": [{"size": "112"}]}}}}}, {"name": "unknown_149", "op": "Const", "attr": {"value": {"tensor": {"dtype": "DT_FLOAT", "tensorShape": {"dim": [{"size": "1"}, {"size": "1"}, {"size": "112"}, {"size": "672"}]}}}, "dtype": {"type": "DT_FLOAT"}}}, {"name": "unknown_150", "op": "Const", "attr": {"dtype": {"type": "DT_FLOAT"}, "value": {"tensor": {"dtype": "DT_FLOAT", "tensorShape": {"dim": [{"size": "672"}]}}}}}, {"name": "PartitionedCall/PartitionedCall/model/tf.__operators__.add_18/y", "op": "Const", "attr": {"value": {"tensor": {"dtype": "DT_FLOAT", "tensorShape": {}}}, "dtype": {"type": "DT_FLOAT"}}}, {"name": "PartitionedCall/PartitionedCall/model/tf.compat.v1.nn.depthwise_conv2d_12/depthwise/SpaceToBatchND/block_shape", "op": "Const", "attr": {"dtype": {"type": "DT_INT32"}, "value": {"tensor": {"dtype": "DT_INT32", "tensorShape": {"dim": [{"size": "2"}]}}}}}, {"name": "PartitionedCall/PartitionedCall/model/tf.compat.v1.nn.depthwise_conv2d_12/depthwise/SpaceToBatchND/paddings", "op": "Const", "attr": {"value": {"tensor": {"dtype": "DT_INT32", "tensorShape": {"dim": [{"size": "2"}, {"size": "2"}]}}}, "dtype": {"type": "DT_INT32"}}}, {"name": "unknown_154", "op": "Const", "attr": {"value": {"tensor": {"dtype": "DT_FLOAT", "tensorShape": {"dim": [{"size": "5"}, {"size": "5"}, {"size": "672"}, {"size": "1"}]}}}, "dtype": {"type": "DT_FLOAT"}}}, {"name": "PartitionedCall/PartitionedCall/model/tf.compat.v1.nn.depthwise_conv2d_12/depthwise/BatchToSpaceND/block_shape", "op": "Const", "attr": {"value": {"tensor": {"dtype": "DT_INT32", "tensorShape": {"dim": [{"size": "2"}]}}}, "dtype": {"type": "DT_INT32"}}}, {"name": "PartitionedCall/PartitionedCall/model/tf.compat.v1.nn.depthwise_conv2d_12/depthwise/BatchToSpaceND/crops", "op": "Const", "attr": {"value": {"tensor": {"dtype": "DT_INT32", "tensorShape": {"dim": [{"size": "2"}, {"size": "2"}]}}}, "dtype": {"type": "DT_INT32"}}}, {"name": "unknown_155", "op": "Const", "attr": {"dtype": {"type": "DT_FLOAT"}, "value": {"tensor": {"dtype": "DT_FLOAT", "tensorShape": {"dim": [{"size": "672"}]}}}}}, {"name": "PartitionedCall/PartitionedCall/model/tf.__operators__.add_19/y", "op": "Const", "attr": {"value": {"tensor": {"dtype": "DT_FLOAT", "tensorShape": {}}}, "dtype": {"type": "DT_FLOAT"}}}, {"name": "unknown_166", "op": "Const", "attr": {"value": {"tensor": {"dtype": "DT_FLOAT", "tensorShape": {"dim": [{"size": "1"}, {"size": "1"}, {"size": "672"}, {"size": "160"}]}}}, "dtype": {"type": "DT_FLOAT"}}}, {"name": "unknown_167", "op": "Const", "attr": {"value": {"tensor": {"dtype": "DT_FLOAT", "tensorShape": {"dim": [{"size": "160"}]}}}, "dtype": {"type": "DT_FLOAT"}}}, {"name": "unknown_206", "op": "Const", "attr": {"value": {"tensor": {"dtype": "DT_FLOAT", "tensorShape": {"dim": [{"size": "1"}, {"size": "1"}, {"size": "160"}, {"size": "960"}]}}}, "dtype": {"type": "DT_FLOAT"}}}, {"name": "unknown_207", "op": "Const", "attr": {"value": {"tensor": {"dtype": "DT_FLOAT", "tensorShape": {"dim": [{"size": "960"}]}}}, "dtype": {"type": "DT_FLOAT"}}}, {"name": "PartitionedCall/PartitionedCall/model/tf.__operators__.add_27/y", "op": "Const", "attr": {"value": {"tensor": {"dtype": "DT_FLOAT", "tensorShape": {}}}, "dtype": {"type": "DT_FLOAT"}}}, {"name": "PartitionedCall/PartitionedCall/model/tf.math.reduce_mean_8/Mean/reduction_indices", "op": "Const", "attr": {"dtype": {"type": "DT_INT32"}, "value": {"tensor": {"dtype": "DT_INT32", "tensorShape": {"dim": [{"size": "2"}]}}}}}, {"name": "unknown_211", "op": "Const", "attr": {"value": {"tensor": {"dtype": "DT_FLOAT", "tensorShape": {"dim": [{"size": "1"}, {"size": "1"}, {"size": "960"}, {"size": "256"}]}}}, "dtype": {"type": "DT_FLOAT"}}}, {"name": "unknown_215", "op": "Const", "attr": {"value": {"tensor": {"dtype": "DT_FLOAT", "tensorShape": {"dim": [{"size": "256"}]}}}, "dtype": {"type": "DT_FLOAT"}}}, {"name": "unknown_221", "op": "Const", "attr": {"value": {"tensor": {"dtype": "DT_INT32", "tensorShape": {"dim": [{"size": "2"}]}}}, "dtype": {"type": "DT_INT32"}}}, {"name": "PartitionedCall/PartitionedCall/model/tf.concat/concat/axis", "op": "Const", "attr": {"value": {"tensor": {"dtype": "DT_INT32", "tensorShape": {}}}, "dtype": {"type": "DT_INT32"}}}, {"name": "unknown_222", "op": "Const", "attr": {"value": {"tensor": {"dtype": "DT_FLOAT", "tensorShape": {"dim": [{"size": "1"}, {"size": "1"}, {"size": "1280"}, {"size": "256"}]}}}, "dtype": {"type": "DT_FLOAT"}}}, {"name": "unknown_223", "op": "Const", "attr": {"dtype": {"type": "DT_FLOAT"}, "value": {"tensor": {"dtype": "DT_FLOAT", "tensorShape": {"dim": [{"size": "256"}]}}}}}, {"name": "unknown_224", "op": "Const", "attr": {"value": {"tensor": {"dtype": "DT_FLOAT", "tensorShape": {"dim": [{"size": "3"}, {"size": "3"}, {"size": "256"}, {"size": "256"}]}}}, "dtype": {"type": "DT_FLOAT"}}}, {"name": "unknown_225", "op": "Const", "attr": {"dtype": {"type": "DT_FLOAT"}, "value": {"tensor": {"dtype": "DT_FLOAT", "tensorShape": {"dim": [{"size": "256"}]}}}}}, {"name": "unknown_226", "op": "Const", "attr": {"dtype": {"type": "DT_FLOAT"}, "value": {"tensor": {"dtype": "DT_FLOAT", "tensorShape": {"dim": [{"size": "1"}, {"size": "1"}, {"size": "256"}, {"size": "2"}]}}}}}, {"name": "unknown_227", "op": "Const", "attr": {"value": {"tensor": {"dtype": "DT_FLOAT", "tensorShape": {"dim": [{"size": "2"}]}}}, "dtype": {"type": "DT_FLOAT"}}}, {"name": "unknown_228", "op": "Const", "attr": {"dtype": {"type": "DT_INT32"}, "value": {"tensor": {"dtype": "DT_INT32", "tensorShape": {"dim": [{"size": "2"}]}}}}}, {"name": "x", "op": "Placeholder", "attr": {"shape": {"shape": {"dim": [{"size": "-1"}, {"size": "384"}, {"size": "384"}, {"size": "3"}]}}, "dtype": {"type": "DT_FLOAT"}}}, {"name": "PartitionedCall/PartitionedCall/model/tf.compat.v1.pad/Pad", "op": "Pad", "input": ["x", "unknown"], "attr": {"Tpaddings": {"type": "DT_INT32"}, "T": {"type": "DT_FLOAT"}}}, {"name": "PartitionedCall/PartitionedCall/model/tf.math.add/Add", "op": "_FusedConv2D", "input": ["PartitionedCall/PartitionedCall/model/tf.compat.v1.pad/Pad", "unknown_0", "unknown_1"], "device": "/device:CPU:0", "attr": {"data_format": {"s": "TkhXQw=="}, "epsilon": {"f": 0.0}, "use_cudnn_on_gpu": {"b": true}, "explicit_paddings": {"list": {}}, "dilations": {"list": {"i": ["1", "1", "1", "1"]}}, "strides": {"list": {"i": ["1", "2", "2", "1"]}}, "T": {"type": "DT_FLOAT"}, "leakyrelu_alpha": {"f": 0.2}, "padding": {"s": "VkFMSUQ="}, "num_host_args": {"i": "0"}, "TArgs": {"list": {"type": ["DT_FLOAT"]}}, "fused_ops": {"list": {"s": ["Qmlhc0FkZA=="]}}, "num_args": {"i": "1"}, "filter_format": {"s": "SFdJTw=="}, "_input_shapes": {"list": {"shape": [{"dim": [{"size": "-2"}, {"size": "-26"}, {"size": "-27"}, {"size": "-25"}]}, {"dim": [{"size": "3"}, {"size": "3"}, {"size": "3"}, {"size": "16"}]}]}}}}, {"name": "PartitionedCall/PartitionedCall/model/tf.math.multiply/Mul", "op": "Mul", "input": ["unknown_2", "PartitionedCall/PartitionedCall/model/tf.math.add/Add"], "attr": {"T": {"type": "DT_FLOAT"}}}, {"name": "PartitionedCall/PartitionedCall/model/tf.__operators__.add/AddV2", "op": "AddV2", "input": ["PartitionedCall/PartitionedCall/model/tf.math.multiply/Mul", "PartitionedCall/PartitionedCall/model/tf.__operators__.add/y"], "attr": {"T": {"type": "DT_FLOAT"}}}, {"name": "PartitionedCall/PartitionedCall/model/tf.math.minimum/Minimum", "op": "Minimum", "input": ["unknown_3", "PartitionedCall/PartitionedCall/model/tf.__operators__.add/AddV2"], "attr": {"T": {"type": "DT_FLOAT"}}}, {"name": "PartitionedCall/PartitionedCall/model/tf.math.maximum/Maximum", "op": "Maximum", "input": ["unknown_4", "PartitionedCall/PartitionedCall/model/tf.math.minimum/Minimum"], "attr": {"T": {"type": "DT_FLOAT"}}}, {"name": "PartitionedCall/PartitionedCall/model/tf.math.multiply_4/Mul", "op": "Mul", "input": ["PartitionedCall/PartitionedCall/model/tf.math.add/Add", "PartitionedCall/PartitionedCall/model/tf.math.maximum/Maximum"], "attr": {"T": {"type": "DT_FLOAT"}}}, {"name": "PartitionedCall/PartitionedCall/model/tf.compat.v1.nn.depthwise_conv2d/depthwise", "op": "FusedDepthwiseConv2dNative", "input": ["PartitionedCall/PartitionedCall/model/tf.math.multiply_4/Mul", "unknown_5", "unknown_6"], "attr": {"explicit_paddings": {"list": {}}, "dilations": {"list": {"i": ["1", "1", "1", "1"]}}, "_input_shapes": {"list": {"shape": [{"dim": [{"size": "-2"}, {"size": "-3"}, {"size": "-4"}, {"size": "16"}]}, {"dim": [{"size": "3"}, {"size": "3"}, {"size": "16"}, {"size": "1"}]}]}}, "padding": {"s": "U0FNRQ=="}, "T": {"type": "DT_FLOAT"}, "data_format": {"s": "TkhXQw=="}, "strides": {"list": {"i": ["1", "1", "1", "1"]}}, "num_args": {"i": "1"}, "fused_ops": {"list": {"s": ["Qmlhc0FkZA==", "UmVsdQ=="]}}}}, {"name": "PartitionedCall/PartitionedCall/model/tf.nn.convolution_1/convolution", "op": "Conv2D", "input": ["PartitionedCall/PartitionedCall/model/tf.compat.v1.nn.depthwise_conv2d/depthwise", "unknown_7"], "device": "/device:CPU:0", "attr": {"dilations": {"list": {"i": ["1", "1", "1", "1"]}}, "padding": {"s": "U0FNRQ=="}, "T": {"type": "DT_FLOAT"}, "data_format": {"s": "TkhXQw=="}, "strides": {"list": {"i": ["1", "1", "1", "1"]}}, "use_cudnn_on_gpu": {"b": true}, "explicit_paddings": {"list": {}}, "_input_shapes": {"list": {"shape": [{"dim": [{"size": "-2"}, {"size": "-3"}, {"size": "-4"}, {"size": "16"}]}, {"dim": [{"size": "1"}, {"size": "1"}, {"size": "16"}, {"size": "16"}]}]}}}}, {"name": "PartitionedCall/PartitionedCall/model/tf.math.add_4/ArithmeticOptimizer/AddOpsRewrite_Leaf_1_Add", "op": "AddN", "input": ["PartitionedCall/PartitionedCall/model/tf.nn.convolution_1/convolution", "PartitionedCall/PartitionedCall/model/tf.math.multiply_4/Mul"], "attr": {"T": {"type": "DT_FLOAT"}, "_grappler_ArithmeticOptimizer_AddOpsRewriteStage": {"b": true}, "N": {"i": "2"}}}, {"name": "PartitionedCall/PartitionedCall/model/tf.math.add_4/ArithmeticOptimizer/AddOpsRewrite_Add", "op": "AddV2", "input": ["unknown_8", "PartitionedCall/PartitionedCall/model/tf.math.add_4/ArithmeticOptimizer/AddOpsRewrite_Leaf_1_Add"], "attr": {"T": {"type": "DT_FLOAT"}, "_grappler_ArithmeticOptimizer_AddOpsRewriteStage": {"b": true}}}, {"name": "PartitionedCall/PartitionedCall/model/tf.nn.relu_1/Relu", "op": "_FusedConv2D", "input": ["PartitionedCall/PartitionedCall/model/tf.math.add_4/ArithmeticOptimizer/AddOpsRewrite_Add", "unknown_9", "unknown_10"], "device": "/device:CPU:0", "attr": {"data_format": {"s": "TkhXQw=="}, "num_args": {"i": "1"}, "epsilon": {"f": 0.0}, "filter_format": {"s": "SFdJTw=="}, "T": {"type": "DT_FLOAT"}, "leakyrelu_alpha": {"f": 0.2}, "use_cudnn_on_gpu": {"b": true}, "padding": {"s": "U0FNRQ=="}, "num_host_args": {"i": "0"}, "fused_ops": {"list": {"s": ["Qmlhc0FkZA==", "UmVsdQ=="]}}, "explicit_paddings": {"list": {}}, "dilations": {"list": {"i": ["1", "1", "1", "1"]}}, "TArgs": {"list": {"type": ["DT_FLOAT"]}}, "strides": {"list": {"i": ["1", "1", "1", "1"]}}, "_input_shapes": {"list": {"shape": [{"dim": [{"size": "-2"}, {"size": "-3"}, {"size": "-4"}, {"size": "16"}]}, {"dim": [{"size": "1"}, {"size": "1"}, {"size": "16"}, {"size": "64"}]}]}}}}, {"name": "PartitionedCall/PartitionedCall/model/tf.compat.v1.pad_1/Pad", "op": "Pad", "input": ["PartitionedCall/PartitionedCall/model/tf.nn.relu_1/Relu", "unknown_11"], "attr": {"Tpaddings": {"type": "DT_INT32"}, "T": {"type": "DT_FLOAT"}}}, {"name": "PartitionedCall/PartitionedCall/model/tf.compat.v1.nn.depthwise_conv2d_1/depthwise", "op": "FusedDepthwiseConv2dNative", "input": ["PartitionedCall/PartitionedCall/model/tf.compat.v1.pad_1/Pad", "unknown_12", "unknown_13"], "attr": {"dilations": {"list": {"i": ["1", "1", "1", "1"]}}, "explicit_paddings": {"list": {}}, "padding": {"s": "VkFMSUQ="}, "_input_shapes": {"list": {"shape": [{"dim": [{"size": "-2"}, {"size": "-28"}, {"size": "-29"}, {"size": "64"}]}, {"dim": [{"size": "3"}, {"size": "3"}, {"size": "64"}, {"size": "1"}]}]}}, "data_format": {"s": "TkhXQw=="}, "T": {"type": "DT_FLOAT"}, "strides": {"list": {"i": ["1", "2", "2", "1"]}}, "num_args": {"i": "1"}, "fused_ops": {"list": {"s": ["Qmlhc0FkZA==", "UmVsdQ=="]}}}}, {"name": "PartitionedCall/PartitionedCall/model/tf.math.add_7/Add", "op": "_FusedConv2D", "input": ["PartitionedCall/PartitionedCall/model/tf.compat.v1.nn.depthwise_conv2d_1/depthwise", "unknown_14", "unknown_15"], "device": "/device:CPU:0", "attr": {"explicit_paddings": {"list": {}}, "TArgs": {"list": {"type": ["DT_FLOAT"]}}, "strides": {"list": {"i": ["1", "1", "1", "1"]}}, "dilations": {"list": {"i": ["1", "1", "1", "1"]}}, "T": {"type": "DT_FLOAT"}, "num_host_args": {"i": "0"}, "_input_shapes": {"list": {"shape": [{"dim": [{"size": "-2"}, {"size": "-5"}, {"size": "-6"}, {"size": "64"}]}, {"dim": [{"size": "1"}, {"size": "1"}, {"size": "64"}, {"size": "24"}]}]}}, "leakyrelu_alpha": {"f": 0.2}, "data_format": {"s": "TkhXQw=="}, "fused_ops": {"list": {"s": ["Qmlhc0FkZA=="]}}, "use_cudnn_on_gpu": {"b": true}, "num_args": {"i": "1"}, "padding": {"s": "U0FNRQ=="}, "epsilon": {"f": 0.0}, "filter_format": {"s": "SFdJTw=="}}}, {"name": "PartitionedCall/PartitionedCall/model/tf.nn.relu_3/Relu", "op": "_FusedConv2D", "input": ["PartitionedCall/PartitionedCall/model/tf.math.add_7/Add", "unknown_16", "unknown_17"], "device": "/device:CPU:0", "attr": {"filter_format": {"s": "SFdJTw=="}, "epsilon": {"f": 0.0}, "fused_ops": {"list": {"s": ["Qmlhc0FkZA==", "UmVsdQ=="]}}, "num_host_args": {"i": "0"}, "leakyrelu_alpha": {"f": 0.2}, "padding": {"s": "U0FNRQ=="}, "explicit_paddings": {"list": {}}, "dilations": {"list": {"i": ["1", "1", "1", "1"]}}, "num_args": {"i": "1"}, "T": {"type": "DT_FLOAT"}, "data_format": {"s": "TkhXQw=="}, "TArgs": {"list": {"type": ["DT_FLOAT"]}}, "_input_shapes": {"list": {"shape": [{"dim": [{"size": "-2"}, {"size": "-5"}, {"size": "-6"}, {"size": "24"}]}, {"dim": [{"size": "1"}, {"size": "1"}, {"size": "24"}, {"size": "72"}]}]}}, "strides": {"list": {"i": ["1", "1", "1", "1"]}}, "use_cudnn_on_gpu": {"b": true}}}, {"name": "PartitionedCall/PartitionedCall/model/tf.compat.v1.nn.depthwise_conv2d_2/depthwise", "op": "FusedDepthwiseConv2dNative", "input": ["PartitionedCall/PartitionedCall/model/tf.nn.relu_3/Relu", "unknown_18", "unknown_19"], "attr": {"T": {"type": "DT_FLOAT"}, "dilations": {"list": {"i": ["1", "1", "1", "1"]}}, "explicit_paddings": {"list": {}}, "_input_shapes": {"list": {"shape": [{"dim": [{"size": "-2"}, {"size": "-5"}, {"size": "-6"}, {"size": "72"}]}, {"dim": [{"size": "3"}, {"size": "3"}, {"size": "72"}, {"size": "1"}]}]}}, "data_format": {"s": "TkhXQw=="}, "strides": {"list": {"i": ["1", "1", "1", "1"]}}, "padding": {"s": "U0FNRQ=="}, "num_args": {"i": "1"}, "fused_ops": {"list": {"s": ["Qmlhc0FkZA==", "UmVsdQ=="]}}}}, {"name": "PartitionedCall/PartitionedCall/model/tf.nn.convolution_5/convolution", "op": "Conv2D", "input": ["PartitionedCall/PartitionedCall/model/tf.compat.v1.nn.depthwise_conv2d_2/depthwise", "unknown_20"], "device": "/device:CPU:0", "attr": {"_input_shapes": {"list": {"shape": [{"dim": [{"size": "-2"}, {"size": "-5"}, {"size": "-6"}, {"size": "72"}]}, {"dim": [{"size": "1"}, {"size": "1"}, {"size": "72"}, {"size": "24"}]}]}}, "padding": {"s": "U0FNRQ=="}, "use_cudnn_on_gpu": {"b": true}, "T": {"type": "DT_FLOAT"}, "strides": {"list": {"i": ["1", "1", "1", "1"]}}, "data_format": {"s": "TkhXQw=="}, "explicit_paddings": {"list": {}}, "dilations": {"list": {"i": ["1", "1", "1", "1"]}}}}, {"name": "PartitionedCall/PartitionedCall/model/tf.math.add_12/ArithmeticOptimizer/AddOpsRewrite_Leaf_1_Add", "op": "AddN", "input": ["PartitionedCall/PartitionedCall/model/tf.nn.convolution_5/convolution", "PartitionedCall/PartitionedCall/model/tf.math.add_7/Add"], "attr": {"_grappler_ArithmeticOptimizer_AddOpsRewriteStage": {"b": true}, "N": {"i": "2"}, "T": {"type": "DT_FLOAT"}}}, {"name": "PartitionedCall/PartitionedCall/model/tf.math.add_12/ArithmeticOptimizer/AddOpsRewrite_Add", "op": "AddV2", "input": ["unknown_21", "PartitionedCall/PartitionedCall/model/tf.math.add_12/ArithmeticOptimizer/AddOpsRewrite_Leaf_1_Add"], "attr": {"_grappler_ArithmeticOptimizer_AddOpsRewriteStage": {"b": true}, "T": {"type": "DT_FLOAT"}}}, {"name": "PartitionedCall/PartitionedCall/model/tf.nn.relu_5/Relu", "op": "_FusedConv2D", "input": ["PartitionedCall/PartitionedCall/model/tf.math.add_12/ArithmeticOptimizer/AddOpsRewrite_Add", "unknown_22", "unknown_23"], "device": "/device:CPU:0", "attr": {"T": {"type": "DT_FLOAT"}, "TArgs": {"list": {"type": ["DT_FLOAT"]}}, "explicit_paddings": {"list": {}}, "num_host_args": {"i": "0"}, "fused_ops": {"list": {"s": ["Qmlhc0FkZA==", "UmVsdQ=="]}}, "leakyrelu_alpha": {"f": 0.2}, "data_format": {"s": "TkhXQw=="}, "num_args": {"i": "1"}, "epsilon": {"f": 0.0}, "dilations": {"list": {"i": ["1", "1", "1", "1"]}}, "_input_shapes": {"list": {"shape": [{"dim": [{"size": "-2"}, {"size": "-5"}, {"size": "-6"}, {"size": "24"}]}, {"dim": [{"size": "1"}, {"size": "1"}, {"size": "24"}, {"size": "72"}]}]}}, "filter_format": {"s": "SFdJTw=="}, "use_cudnn_on_gpu": {"b": true}, "strides": {"list": {"i": ["1", "1", "1", "1"]}}, "padding": {"s": "U0FNRQ=="}}}, {"name": "PartitionedCall/PartitionedCall/model/tf.compat.v1.pad_2/Pad", "op": "Pad", "input": ["PartitionedCall/PartitionedCall/model/tf.nn.relu_5/Relu", "unknown_24"], "attr": {"T": {"type": "DT_FLOAT"}, "Tpaddings": {"type": "DT_INT32"}}}, {"name": "PartitionedCall/PartitionedCall/model/tf.compat.v1.nn.depthwise_conv2d_3/depthwise", "op": "FusedDepthwiseConv2dNative", "input": ["PartitionedCall/PartitionedCall/model/tf.compat.v1.pad_2/Pad", "unknown_25", "unknown_26"], "attr": {"strides": {"list": {"i": ["1", "2", "2", "1"]}}, "padding": {"s": "VkFMSUQ="}, "T": {"type": "DT_FLOAT"}, "dilations": {"list": {"i": ["1", "1", "1", "1"]}}, "_input_shapes": {"list": {"shape": [{"dim": [{"size": "-2"}, {"size": "-30"}, {"size": "-31"}, {"size": "72"}]}, {"dim": [{"size": "5"}, {"size": "5"}, {"size": "72"}, {"size": "1"}]}]}}, "explicit_paddings": {"list": {}}, "data_format": {"s": "TkhXQw=="}, "num_args": {"i": "1"}, "fused_ops": {"list": {"s": ["Qmlhc0FkZA==", "UmVsdQ=="]}}}}, {"name": "PartitionedCall/PartitionedCall/model/tf.math.reduce_mean/Mean", "op": "Mean", "input": ["PartitionedCall/PartitionedCall/model/tf.compat.v1.nn.depthwise_conv2d_3/depthwise", "PartitionedCall/PartitionedCall/model/tf.math.reduce_mean/Mean/reduction_indices"], "attr": {"Tidx": {"type": "DT_INT32"}, "T": {"type": "DT_FLOAT"}, "keep_dims": {"b": true}}}, {"name": "PartitionedCall/PartitionedCall/model/tf.nn.relu_7/Relu", "op": "_FusedConv2D", "input": ["PartitionedCall/PartitionedCall/model/tf.math.reduce_mean/Mean", "unknown_27", "unknown_28"], "device": "/device:CPU:0", "attr": {"explicit_paddings": {"list": {}}, "filter_format": {"s": "SFdJTw=="}, "strides": {"list": {"i": ["1", "1", "1", "1"]}}, "dilations": {"list": {"i": ["1", "1", "1", "1"]}}, "TArgs": {"list": {"type": ["DT_FLOAT"]}}, "_input_shapes": {"list": {"shape": [{"dim": [{"size": "-2"}, {"size": "1"}, {"size": "1"}, {"size": "72"}]}, {"dim": [{"size": "1"}, {"size": "1"}, {"size": "72"}, {"size": "24"}]}]}}, "leakyrelu_alpha": {"f": 0.2}, "T": {"type": "DT_FLOAT"}, "num_host_args": {"i": "0"}, "data_format": {"s": "TkhXQw=="}, "use_cudnn_on_gpu": {"b": true}, "num_args": {"i": "1"}, "epsilon": {"f": 0.0}, "fused_ops": {"list": {"s": ["Qmlhc0FkZA==", "UmVsdQ=="]}}, "padding": {"s": "U0FNRQ=="}}}, {"name": "PartitionedCall/PartitionedCall/model/tf.math.add_16/Add", "op": "_FusedConv2D", "input": ["PartitionedCall/PartitionedCall/model/tf.nn.relu_7/Relu", "unknown_29", "unknown_30"], "device": "/device:CPU:0", "attr": {"TArgs": {"list": {"type": ["DT_FLOAT"]}}, "num_args": {"i": "1"}, "dilations": {"list": {"i": ["1", "1", "1", "1"]}}, "T": {"type": "DT_FLOAT"}, "filter_format": {"s": "SFdJTw=="}, "data_format": {"s": "TkhXQw=="}, "leakyrelu_alpha": {"f": 0.2}, "use_cudnn_on_gpu": {"b": true}, "epsilon": {"f": 0.0}, "explicit_paddings": {"list": {}}, "strides": {"list": {"i": ["1", "1", "1", "1"]}}, "_input_shapes": {"list": {"shape": [{"dim": [{"size": "-2"}, {"size": "1"}, {"size": "1"}, {"size": "24"}]}, {"dim": [{"size": "1"}, {"size": "1"}, {"size": "24"}, {"size": "72"}]}]}}, "padding": {"s": "U0FNRQ=="}, "num_host_args": {"i": "0"}, "fused_ops": {"list": {"s": ["Qmlhc0FkZA=="]}}}}, {"name": "PartitionedCall/PartitionedCall/model/tf.math.multiply_9/Mul", "op": "Mul", "input": ["unknown_31", "PartitionedCall/PartitionedCall/model/tf.math.add_16/Add"], "attr": {"T": {"type": "DT_FLOAT"}}}, {"name": "PartitionedCall/PartitionedCall/model/tf.__operators__.add_1/AddV2", "op": "AddV2", "input": ["PartitionedCall/PartitionedCall/model/tf.math.multiply_9/Mul", "PartitionedCall/PartitionedCall/model/tf.__operators__.add_1/y"], "attr": {"T": {"type": "DT_FLOAT"}}}, {"name": "PartitionedCall/PartitionedCall/model/tf.math.minimum_1/Minimum", "op": "Minimum", "input": ["unknown_32", "PartitionedCall/PartitionedCall/model/tf.__operators__.add_1/AddV2"], "attr": {"T": {"type": "DT_FLOAT"}}}, {"name": "PartitionedCall/PartitionedCall/model/tf.math.maximum_1/Maximum", "op": "Maximum", "input": ["unknown_33", "PartitionedCall/PartitionedCall/model/tf.math.minimum_1/Minimum"], "attr": {"T": {"type": "DT_FLOAT"}}}, {"name": "PartitionedCall/PartitionedCall/model/tf.math.multiply_13/Mul", "op": "Mul", "input": ["PartitionedCall/PartitionedCall/model/tf.math.maximum_1/Maximum", "PartitionedCall/PartitionedCall/model/tf.compat.v1.nn.depthwise_conv2d_3/depthwise"], "attr": {"T": {"type": "DT_FLOAT"}}}, {"name": "PartitionedCall/PartitionedCall/model/tf.math.add_17/Add", "op": "_FusedConv2D", "input": ["PartitionedCall/PartitionedCall/model/tf.math.multiply_13/Mul", "unknown_34", "unknown_35"], "device": "/device:CPU:0", "attr": {"explicit_paddings": {"list": {}}, "padding": {"s": "U0FNRQ=="}, "num_args": {"i": "1"}, "leakyrelu_alpha": {"f": 0.2}, "data_format": {"s": "TkhXQw=="}, "use_cudnn_on_gpu": {"b": true}, "dilations": {"list": {"i": ["1", "1", "1", "1"]}}, "filter_format": {"s": "SFdJTw=="}, "fused_ops": {"list": {"s": ["Qmlhc0FkZA=="]}}, "TArgs": {"list": {"type": ["DT_FLOAT"]}}, "epsilon": {"f": 0.0}, "strides": {"list": {"i": ["1", "1", "1", "1"]}}, "num_host_args": {"i": "0"}, "_input_shapes": {"list": {"shape": [{"dim": [{"size": "-2"}, {"size": "-7"}, {"size": "-8"}, {"size": "72"}]}, {"dim": [{"size": "1"}, {"size": "1"}, {"size": "72"}, {"size": "40"}]}]}}, "T": {"type": "DT_FLOAT"}}}, {"name": "PartitionedCall/PartitionedCall/model/tf.nn.relu_8/Relu", "op": "_FusedConv2D", "input": ["PartitionedCall/PartitionedCall/model/tf.math.add_17/Add", "unknown_36", "unknown_37"], "device": "/device:CPU:0", "attr": {"num_host_args": {"i": "0"}, "T": {"type": "DT_FLOAT"}, "fused_ops": {"list": {"s": ["Qmlhc0FkZA==", "UmVsdQ=="]}}, "dilations": {"list": {"i": ["1", "1", "1", "1"]}}, "num_args": {"i": "1"}, "filter_format": {"s": "SFdJTw=="}, "leakyrelu_alpha": {"f": 0.2}, "data_format": {"s": "TkhXQw=="}, "strides": {"list": {"i": ["1", "1", "1", "1"]}}, "epsilon": {"f": 0.0}, "use_cudnn_on_gpu": {"b": true}, "explicit_paddings": {"list": {}}, "padding": {"s": "U0FNRQ=="}, "_input_shapes": {"list": {"shape": [{"dim": [{"size": "-2"}, {"size": "-7"}, {"size": "-8"}, {"size": "40"}]}, {"dim": [{"size": "1"}, {"size": "1"}, {"size": "40"}, {"size": "120"}]}]}}, "TArgs": {"list": {"type": ["DT_FLOAT"]}}}}, {"name": "PartitionedCall/PartitionedCall/model/tf.compat.v1.nn.depthwise_conv2d_4/depthwise", "op": "FusedDepthwiseConv2dNative", "input": ["PartitionedCall/PartitionedCall/model/tf.nn.relu_8/Relu", "unknown_38", "unknown_39"], "attr": {"data_format": {"s": "TkhXQw=="}, "padding": {"s": "U0FNRQ=="}, "explicit_paddings": {"list": {}}, "strides": {"list": {"i": ["1", "1", "1", "1"]}}, "T": {"type": "DT_FLOAT"}, "_input_shapes": {"list": {"shape": [{"dim": [{"size": "-2"}, {"size": "-7"}, {"size": "-8"}, {"size": "120"}]}, {"dim": [{"size": "5"}, {"size": "5"}, {"size": "120"}, {"size": "1"}]}]}}, "dilations": {"list": {"i": ["1", "1", "1", "1"]}}, "num_args": {"i": "1"}, "fused_ops": {"list": {"s": ["Qmlhc0FkZA==", "UmVsdQ=="]}}}}, {"name": "PartitionedCall/PartitionedCall/model/tf.math.reduce_mean_1/Mean", "op": "Mean", "input": ["PartitionedCall/PartitionedCall/model/tf.compat.v1.nn.depthwise_conv2d_4/depthwise", "PartitionedCall/PartitionedCall/model/tf.math.reduce_mean_1/Mean/reduction_indices"], "attr": {"Tidx": {"type": "DT_INT32"}, "keep_dims": {"b": true}, "T": {"type": "DT_FLOAT"}}}, {"name": "PartitionedCall/PartitionedCall/model/tf.nn.relu_10/Relu", "op": "_FusedConv2D", "input": ["PartitionedCall/PartitionedCall/model/tf.math.reduce_mean_1/Mean", "unknown_40", "unknown_41"], "device": "/device:CPU:0", "attr": {"num_host_args": {"i": "0"}, "data_format": {"s": "TkhXQw=="}, "explicit_paddings": {"list": {}}, "fused_ops": {"list": {"s": ["Qmlhc0FkZA==", "UmVsdQ=="]}}, "filter_format": {"s": "SFdJTw=="}, "epsilon": {"f": 0.0}, "strides": {"list": {"i": ["1", "1", "1", "1"]}}, "padding": {"s": "U0FNRQ=="}, "_input_shapes": {"list": {"shape": [{"dim": [{"size": "-2"}, {"size": "1"}, {"size": "1"}, {"size": "120"}]}, {"dim": [{"size": "1"}, {"size": "1"}, {"size": "120"}, {"size": "32"}]}]}}, "T": {"type": "DT_FLOAT"}, "leakyrelu_alpha": {"f": 0.2}, "use_cudnn_on_gpu": {"b": true}, "dilations": {"list": {"i": ["1", "1", "1", "1"]}}, "TArgs": {"list": {"type": ["DT_FLOAT"]}}, "num_args": {"i": "1"}}}, {"name": "PartitionedCall/PartitionedCall/model/tf.math.add_21/Add", "op": "_FusedConv2D", "input": ["PartitionedCall/PartitionedCall/model/tf.nn.relu_10/Relu", "unknown_42", "unknown_43"], "device": "/device:CPU:0", "attr": {"dilations": {"list": {"i": ["1", "1", "1", "1"]}}, "T": {"type": "DT_FLOAT"}, "num_args": {"i": "1"}, "_input_shapes": {"list": {"shape": [{"dim": [{"size": "-2"}, {"size": "1"}, {"size": "1"}, {"size": "32"}]}, {"dim": [{"size": "1"}, {"size": "1"}, {"size": "32"}, {"size": "120"}]}]}}, "filter_format": {"s": "SFdJTw=="}, "data_format": {"s": "TkhXQw=="}, "num_host_args": {"i": "0"}, "TArgs": {"list": {"type": ["DT_FLOAT"]}}, "epsilon": {"f": 0.0}, "fused_ops": {"list": {"s": ["Qmlhc0FkZA=="]}}, "use_cudnn_on_gpu": {"b": true}, "strides": {"list": {"i": ["1", "1", "1", "1"]}}, "leakyrelu_alpha": {"f": 0.2}, "padding": {"s": "U0FNRQ=="}, "explicit_paddings": {"list": {}}}}, {"name": "PartitionedCall/PartitionedCall/model/tf.math.multiply_14/Mul", "op": "Mul", "input": ["unknown_44", "PartitionedCall/PartitionedCall/model/tf.math.add_21/Add"], "attr": {"T": {"type": "DT_FLOAT"}}}, {"name": "PartitionedCall/PartitionedCall/model/tf.__operators__.add_2/AddV2", "op": "AddV2", "input": ["PartitionedCall/PartitionedCall/model/tf.math.multiply_14/Mul", "PartitionedCall/PartitionedCall/model/tf.__operators__.add_2/y"], "attr": {"T": {"type": "DT_FLOAT"}}}, {"name": "PartitionedCall/PartitionedCall/model/tf.math.minimum_2/Minimum", "op": "Minimum", "input": ["unknown_45", "PartitionedCall/PartitionedCall/model/tf.__operators__.add_2/AddV2"], "attr": {"T": {"type": "DT_FLOAT"}}}, {"name": "PartitionedCall/PartitionedCall/model/tf.math.maximum_2/Maximum", "op": "Maximum", "input": ["unknown_46", "PartitionedCall/PartitionedCall/model/tf.math.minimum_2/Minimum"], "attr": {"T": {"type": "DT_FLOAT"}}}, {"name": "PartitionedCall/PartitionedCall/model/tf.math.multiply_18/Mul", "op": "Mul", "input": ["PartitionedCall/PartitionedCall/model/tf.math.maximum_2/Maximum", "PartitionedCall/PartitionedCall/model/tf.compat.v1.nn.depthwise_conv2d_4/depthwise"], "attr": {"T": {"type": "DT_FLOAT"}}}, {"name": "PartitionedCall/PartitionedCall/model/tf.nn.convolution_13/convolution", "op": "Conv2D", "input": ["PartitionedCall/PartitionedCall/model/tf.math.multiply_18/Mul", "unknown_47"], "device": "/device:CPU:0", "attr": {"strides": {"list": {"i": ["1", "1", "1", "1"]}}, "padding": {"s": "U0FNRQ=="}, "_input_shapes": {"list": {"shape": [{"dim": [{"size": "-2"}, {"size": "-7"}, {"size": "-8"}, {"size": "120"}]}, {"dim": [{"size": "1"}, {"size": "1"}, {"size": "120"}, {"size": "40"}]}]}}, "T": {"type": "DT_FLOAT"}, "data_format": {"s": "TkhXQw=="}, "use_cudnn_on_gpu": {"b": true}, "dilations": {"list": {"i": ["1", "1", "1", "1"]}}, "explicit_paddings": {"list": {}}}}, {"name": "PartitionedCall/PartitionedCall/model/tf.math.add_24/ArithmeticOptimizer/AddOpsRewrite_Leaf_1_Add", "op": "AddN", "input": ["PartitionedCall/PartitionedCall/model/tf.nn.convolution_13/convolution", "PartitionedCall/PartitionedCall/model/tf.math.add_17/Add"], "attr": {"_grappler_ArithmeticOptimizer_AddOpsRewriteStage": {"b": true}, "T": {"type": "DT_FLOAT"}, "N": {"i": "2"}}}, {"name": "PartitionedCall/PartitionedCall/model/tf.math.add_24/ArithmeticOptimizer/AddOpsRewrite_Add", "op": "AddV2", "input": ["unknown_48", "PartitionedCall/PartitionedCall/model/tf.math.add_24/ArithmeticOptimizer/AddOpsRewrite_Leaf_1_Add"], "attr": {"T": {"type": "DT_FLOAT"}, "_grappler_ArithmeticOptimizer_AddOpsRewriteStage": {"b": true}}}, {"name": "PartitionedCall/PartitionedCall/model/tf.nn.relu_11/Relu", "op": "_FusedConv2D", "input": ["PartitionedCall/PartitionedCall/model/tf.math.add_24/ArithmeticOptimizer/AddOpsRewrite_Add", "unknown_49", "unknown_50"], "device": "/device:CPU:0", "attr": {"use_cudnn_on_gpu": {"b": true}, "num_args": {"i": "1"}, "TArgs": {"list": {"type": ["DT_FLOAT"]}}, "num_host_args": {"i": "0"}, "data_format": {"s": "TkhXQw=="}, "T": {"type": "DT_FLOAT"}, "_input_shapes": {"list": {"shape": [{"dim": [{"size": "-2"}, {"size": "-7"}, {"size": "-8"}, {"size": "40"}]}, {"dim": [{"size": "1"}, {"size": "1"}, {"size": "40"}, {"size": "120"}]}]}}, "leakyrelu_alpha": {"f": 0.2}, "filter_format": {"s": "SFdJTw=="}, "dilations": {"list": {"i": ["1", "1", "1", "1"]}}, "fused_ops": {"list": {"s": ["Qmlhc0FkZA==", "UmVsdQ=="]}}, "explicit_paddings": {"list": {}}, "epsilon": {"f": 0.0}, "strides": {"list": {"i": ["1", "1", "1", "1"]}}, "padding": {"s": "U0FNRQ=="}}}, {"name": "PartitionedCall/PartitionedCall/model/tf.compat.v1.nn.depthwise_conv2d_5/depthwise", "op": "FusedDepthwiseConv2dNative", "input": ["PartitionedCall/PartitionedCall/model/tf.nn.relu_11/Relu", "unknown_51", "unknown_52"], "attr": {"data_format": {"s": "TkhXQw=="}, "explicit_paddings": {"list": {}}, "dilations": {"list": {"i": ["1", "1", "1", "1"]}}, "padding": {"s": "U0FNRQ=="}, "strides": {"list": {"i": ["1", "1", "1", "1"]}}, "_input_shapes": {"list": {"shape": [{"dim": [{"size": "-2"}, {"size": "-7"}, {"size": "-8"}, {"size": "120"}]}, {"dim": [{"size": "5"}, {"size": "5"}, {"size": "120"}, {"size": "1"}]}]}}, "T": {"type": "DT_FLOAT"}, "num_args": {"i": "1"}, "fused_ops": {"list": {"s": ["Qmlhc0FkZA==", "UmVsdQ=="]}}}}, {"name": "PartitionedCall/PartitionedCall/model/tf.math.reduce_mean_2/Mean", "op": "Mean", "input": ["PartitionedCall/PartitionedCall/model/tf.compat.v1.nn.depthwise_conv2d_5/depthwise", "PartitionedCall/PartitionedCall/model/tf.math.reduce_mean_2/Mean/reduction_indices"], "attr": {"Tidx": {"type": "DT_INT32"}, "keep_dims": {"b": true}, "T": {"type": "DT_FLOAT"}}}, {"name": "PartitionedCall/PartitionedCall/model/tf.nn.relu_13/Relu", "op": "_FusedConv2D", "input": ["PartitionedCall/PartitionedCall/model/tf.math.reduce_mean_2/Mean", "unknown_53", "unknown_54"], "device": "/device:CPU:0", "attr": {"num_host_args": {"i": "0"}, "use_cudnn_on_gpu": {"b": true}, "dilations": {"list": {"i": ["1", "1", "1", "1"]}}, "num_args": {"i": "1"}, "filter_format": {"s": "SFdJTw=="}, "padding": {"s": "U0FNRQ=="}, "T": {"type": "DT_FLOAT"}, "data_format": {"s": "TkhXQw=="}, "fused_ops": {"list": {"s": ["Qmlhc0FkZA==", "UmVsdQ=="]}}, "strides": {"list": {"i": ["1", "1", "1", "1"]}}, "epsilon": {"f": 0.0}, "explicit_paddings": {"list": {}}, "_input_shapes": {"list": {"shape": [{"dim": [{"size": "-2"}, {"size": "1"}, {"size": "1"}, {"size": "120"}]}, {"dim": [{"size": "1"}, {"size": "1"}, {"size": "120"}, {"size": "32"}]}]}}, "TArgs": {"list": {"type": ["DT_FLOAT"]}}, "leakyrelu_alpha": {"f": 0.2}}}, {"name": "PartitionedCall/PartitionedCall/model/tf.math.add_28/Add", "op": "_FusedConv2D", "input": ["PartitionedCall/PartitionedCall/model/tf.nn.relu_13/Relu", "unknown_55", "unknown_56"], "device": "/device:CPU:0", "attr": {"explicit_paddings": {"list": {}}, "strides": {"list": {"i": ["1", "1", "1", "1"]}}, "dilations": {"list": {"i": ["1", "1", "1", "1"]}}, "_input_shapes": {"list": {"shape": [{"dim": [{"size": "-2"}, {"size": "1"}, {"size": "1"}, {"size": "32"}]}, {"dim": [{"size": "1"}, {"size": "1"}, {"size": "32"}, {"size": "120"}]}]}}, "T": {"type": "DT_FLOAT"}, "num_host_args": {"i": "0"}, "TArgs": {"list": {"type": ["DT_FLOAT"]}}, "leakyrelu_alpha": {"f": 0.2}, "data_format": {"s": "TkhXQw=="}, "epsilon": {"f": 0.0}, "use_cudnn_on_gpu": {"b": true}, "num_args": {"i": "1"}, "fused_ops": {"list": {"s": ["Qmlhc0FkZA=="]}}, "padding": {"s": "U0FNRQ=="}, "filter_format": {"s": "SFdJTw=="}}}, {"name": "PartitionedCall/PartitionedCall/model/tf.math.multiply_21/Mul", "op": "Mul", "input": ["unknown_57", "PartitionedCall/PartitionedCall/model/tf.math.add_28/Add"], "attr": {"T": {"type": "DT_FLOAT"}}}, {"name": "PartitionedCall/PartitionedCall/model/tf.__operators__.add_3/AddV2", "op": "AddV2", "input": ["PartitionedCall/PartitionedCall/model/tf.math.multiply_21/Mul", "PartitionedCall/PartitionedCall/model/tf.__operators__.add_3/y"], "attr": {"T": {"type": "DT_FLOAT"}}}, {"name": "PartitionedCall/PartitionedCall/model/tf.math.minimum_3/Minimum", "op": "Minimum", "input": ["unknown_58", "PartitionedCall/PartitionedCall/model/tf.__operators__.add_3/AddV2"], "attr": {"T": {"type": "DT_FLOAT"}}}, {"name": "PartitionedCall/PartitionedCall/model/tf.math.maximum_3/Maximum", "op": "Maximum", "input": ["unknown_59", "PartitionedCall/PartitionedCall/model/tf.math.minimum_3/Minimum"], "attr": {"T": {"type": "DT_FLOAT"}}}, {"name": "PartitionedCall/PartitionedCall/model/tf.math.multiply_25/Mul", "op": "Mul", "input": ["PartitionedCall/PartitionedCall/model/tf.math.maximum_3/Maximum", "PartitionedCall/PartitionedCall/model/tf.compat.v1.nn.depthwise_conv2d_5/depthwise"], "attr": {"T": {"type": "DT_FLOAT"}}}, {"name": "PartitionedCall/PartitionedCall/model/tf.nn.convolution_17/convolution", "op": "Conv2D", "input": ["PartitionedCall/PartitionedCall/model/tf.math.multiply_25/Mul", "unknown_60"], "device": "/device:CPU:0", "attr": {"strides": {"list": {"i": ["1", "1", "1", "1"]}}, "padding": {"s": "U0FNRQ=="}, "_input_shapes": {"list": {"shape": [{"dim": [{"size": "-2"}, {"size": "-7"}, {"size": "-8"}, {"size": "120"}]}, {"dim": [{"size": "1"}, {"size": "1"}, {"size": "120"}, {"size": "40"}]}]}}, "T": {"type": "DT_FLOAT"}, "explicit_paddings": {"list": {}}, "use_cudnn_on_gpu": {"b": true}, "data_format": {"s": "TkhXQw=="}, "dilations": {"list": {"i": ["1", "1", "1", "1"]}}}}, {"name": "PartitionedCall/PartitionedCall/model/tf.math.add_31/ArithmeticOptimizer/AddOpsRewrite_Leaf_1_Add", "op": "AddN", "input": ["PartitionedCall/PartitionedCall/model/tf.nn.convolution_17/convolution", "PartitionedCall/PartitionedCall/model/tf.math.add_24/ArithmeticOptimizer/AddOpsRewrite_Add"], "attr": {"_grappler_ArithmeticOptimizer_AddOpsRewriteStage": {"b": true}, "N": {"i": "2"}, "T": {"type": "DT_FLOAT"}}}, {"name": "PartitionedCall/PartitionedCall/model/tf.math.add_31/ArithmeticOptimizer/AddOpsRewrite_Add", "op": "AddV2", "input": ["unknown_61", "PartitionedCall/PartitionedCall/model/tf.math.add_31/ArithmeticOptimizer/AddOpsRewrite_Leaf_1_Add"], "attr": {"T": {"type": "DT_FLOAT"}, "_grappler_ArithmeticOptimizer_AddOpsRewriteStage": {"b": true}}}, {"name": "PartitionedCall/PartitionedCall/model/tf.math.add_32/Add", "op": "_FusedConv2D", "input": ["PartitionedCall/PartitionedCall/model/tf.math.add_31/ArithmeticOptimizer/AddOpsRewrite_Add", "unknown_62", "unknown_63"], "device": "/device:CPU:0", "attr": {"dilations": {"list": {"i": ["1", "1", "1", "1"]}}, "epsilon": {"f": 0.0}, "T": {"type": "DT_FLOAT"}, "_input_shapes": {"list": {"shape": [{"dim": [{"size": "-2"}, {"size": "-7"}, {"size": "-8"}, {"size": "40"}]}, {"dim": [{"size": "1"}, {"size": "1"}, {"size": "40"}, {"size": "240"}]}]}}, "filter_format": {"s": "SFdJTw=="}, "leakyrelu_alpha": {"f": 0.2}, "explicit_paddings": {"list": {}}, "TArgs": {"list": {"type": ["DT_FLOAT"]}}, "strides": {"list": {"i": ["1", "1", "1", "1"]}}, "num_host_args": {"i": "0"}, "data_format": {"s": "TkhXQw=="}, "fused_ops": {"list": {"s": ["Qmlhc0FkZA=="]}}, "use_cudnn_on_gpu": {"b": true}, "padding": {"s": "U0FNRQ=="}, "num_args": {"i": "1"}}}, {"name": "PartitionedCall/PartitionedCall/model/tf.math.multiply_28/Mul", "op": "Mul", "input": ["unknown_64", "PartitionedCall/PartitionedCall/model/tf.math.add_32/Add"], "attr": {"T": {"type": "DT_FLOAT"}}}, {"name": "PartitionedCall/PartitionedCall/model/tf.__operators__.add_4/AddV2", "op": "AddV2", "input": ["PartitionedCall/PartitionedCall/model/tf.math.multiply_28/Mul", "PartitionedCall/PartitionedCall/model/tf.__operators__.add_4/y"], "attr": {"T": {"type": "DT_FLOAT"}}}, {"name": "PartitionedCall/PartitionedCall/model/tf.math.minimum_4/Minimum", "op": "Minimum", "input": ["unknown_65", "PartitionedCall/PartitionedCall/model/tf.__operators__.add_4/AddV2"], "attr": {"T": {"type": "DT_FLOAT"}}}, {"name": "PartitionedCall/PartitionedCall/model/tf.math.maximum_4/Maximum", "op": "Maximum", "input": ["unknown_66", "PartitionedCall/PartitionedCall/model/tf.math.minimum_4/Minimum"], "attr": {"T": {"type": "DT_FLOAT"}}}, {"name": "PartitionedCall/PartitionedCall/model/tf.math.multiply_32/Mul", "op": "Mul", "input": ["PartitionedCall/PartitionedCall/model/tf.math.add_32/Add", "PartitionedCall/PartitionedCall/model/tf.math.maximum_4/Maximum"], "attr": {"T": {"type": "DT_FLOAT"}}}, {"name": "PartitionedCall/PartitionedCall/model/tf.compat.v1.pad_3/Pad", "op": "Pad", "input": ["PartitionedCall/PartitionedCall/model/tf.math.multiply_32/Mul", "unknown_67"], "attr": {"Tpaddings": {"type": "DT_INT32"}, "T": {"type": "DT_FLOAT"}}}, {"name": "PartitionedCall/PartitionedCall/model/tf.compat.v1.nn.depthwise_conv2d_6/depthwise", "op": "FusedDepthwiseConv2dNative", "input": ["PartitionedCall/PartitionedCall/model/tf.compat.v1.pad_3/Pad", "unknown_68", "unknown_69"], "attr": {"_input_shapes": {"list": {"shape": [{"dim": [{"size": "-2"}, {"size": "-32"}, {"size": "-33"}, {"size": "240"}]}, {"dim": [{"size": "3"}, {"size": "3"}, {"size": "240"}, {"size": "1"}]}]}}, "data_format": {"s": "TkhXQw=="}, "strides": {"list": {"i": ["1", "2", "2", "1"]}}, "explicit_paddings": {"list": {}}, "padding": {"s": "VkFMSUQ="}, "dilations": {"list": {"i": ["1", "1", "1", "1"]}}, "T": {"type": "DT_FLOAT"}, "num_args": {"i": "1"}, "fused_ops": {"list": {"s": ["Qmlhc0FkZA=="]}}}}, {"name": "PartitionedCall/PartitionedCall/model/tf.math.multiply_33/Mul", "op": "Mul", "input": ["unknown_70", "PartitionedCall/PartitionedCall/model/tf.compat.v1.nn.depthwise_conv2d_6/depthwise"], "attr": {"T": {"type": "DT_FLOAT"}}}, {"name": "PartitionedCall/PartitionedCall/model/tf.__operators__.add_5/AddV2", "op": "AddV2", "input": ["PartitionedCall/PartitionedCall/model/tf.math.multiply_33/Mul", "PartitionedCall/PartitionedCall/model/tf.__operators__.add_5/y"], "attr": {"T": {"type": "DT_FLOAT"}}}, {"name": "PartitionedCall/PartitionedCall/model/tf.math.minimum_5/Minimum", "op": "Minimum", "input": ["unknown_71", "PartitionedCall/PartitionedCall/model/tf.__operators__.add_5/AddV2"], "attr": {"T": {"type": "DT_FLOAT"}}}, {"name": "PartitionedCall/PartitionedCall/model/tf.math.maximum_5/Maximum", "op": "Maximum", "input": ["unknown_72", "PartitionedCall/PartitionedCall/model/tf.math.minimum_5/Minimum"], "attr": {"T": {"type": "DT_FLOAT"}}}, {"name": "PartitionedCall/PartitionedCall/model/tf.math.multiply_37/Mul", "op": "Mul", "input": ["PartitionedCall/PartitionedCall/model/tf.compat.v1.nn.depthwise_conv2d_6/depthwise", "PartitionedCall/PartitionedCall/model/tf.math.maximum_5/Maximum"], "attr": {"T": {"type": "DT_FLOAT"}}}, {"name": "PartitionedCall/PartitionedCall/model/tf.math.add_34/Add", "op": "_FusedConv2D", "input": ["PartitionedCall/PartitionedCall/model/tf.math.multiply_37/Mul", "unknown_73", "unknown_74"], "device": "/device:CPU:0", "attr": {"TArgs": {"list": {"type": ["DT_FLOAT"]}}, "leakyrelu_alpha": {"f": 0.2}, "data_format": {"s": "TkhXQw=="}, "strides": {"list": {"i": ["1", "1", "1", "1"]}}, "dilations": {"list": {"i": ["1", "1", "1", "1"]}}, "use_cudnn_on_gpu": {"b": true}, "fused_ops": {"list": {"s": ["Qmlhc0FkZA=="]}}, "epsilon": {"f": 0.0}, "filter_format": {"s": "SFdJTw=="}, "T": {"type": "DT_FLOAT"}, "num_host_args": {"i": "0"}, "padding": {"s": "U0FNRQ=="}, "_input_shapes": {"list": {"shape": [{"dim": [{"size": "-2"}, {"size": "-9"}, {"size": "-10"}, {"size": "240"}]}, {"dim": [{"size": "1"}, {"size": "1"}, {"size": "240"}, {"size": "80"}]}]}}, "explicit_paddings": {"list": {}}, "num_args": {"i": "1"}}}, {"name": "PartitionedCall/PartitionedCall/model/tf.math.add_35/Add", "op": "_FusedConv2D", "input": ["PartitionedCall/PartitionedCall/model/tf.math.add_34/Add", "unknown_75", "unknown_76"], "device": "/device:CPU:0", "attr": {"num_host_args": {"i": "0"}, "leakyrelu_alpha": {"f": 0.2}, "explicit_paddings": {"list": {}}, "dilations": {"list": {"i": ["1", "1", "1", "1"]}}, "padding": {"s": "U0FNRQ=="}, "num_args": {"i": "1"}, "data_format": {"s": "TkhXQw=="}, "_input_shapes": {"list": {"shape": [{"dim": [{"size": "-2"}, {"size": "-9"}, {"size": "-10"}, {"size": "80"}]}, {"dim": [{"size": "1"}, {"size": "1"}, {"size": "80"}, {"size": "200"}]}]}}, "T": {"type": "DT_FLOAT"}, "use_cudnn_on_gpu": {"b": true}, "TArgs": {"list": {"type": ["DT_FLOAT"]}}, "fused_ops": {"list": {"s": ["Qmlhc0FkZA=="]}}, "filter_format": {"s": "SFdJTw=="}, "epsilon": {"f": 0.0}, "strides": {"list": {"i": ["1", "1", "1", "1"]}}}}, {"name": "PartitionedCall/PartitionedCall/model/tf.math.multiply_38/Mul", "op": "Mul", "input": ["unknown_77", "PartitionedCall/PartitionedCall/model/tf.math.add_35/Add"], "attr": {"T": {"type": "DT_FLOAT"}}}, {"name": "PartitionedCall/PartitionedCall/model/tf.__operators__.add_6/AddV2", "op": "AddV2", "input": ["PartitionedCall/PartitionedCall/model/tf.math.multiply_38/Mul", "PartitionedCall/PartitionedCall/model/tf.__operators__.add_6/y"], "attr": {"T": {"type": "DT_FLOAT"}}}, {"name": "PartitionedCall/PartitionedCall/model/tf.math.minimum_6/Minimum", "op": "Minimum", "input": ["unknown_78", "PartitionedCall/PartitionedCall/model/tf.__operators__.add_6/AddV2"], "attr": {"T": {"type": "DT_FLOAT"}}}, {"name": "PartitionedCall/PartitionedCall/model/tf.math.maximum_6/Maximum", "op": "Maximum", "input": ["unknown_79", "PartitionedCall/PartitionedCall/model/tf.math.minimum_6/Minimum"], "attr": {"T": {"type": "DT_FLOAT"}}}, {"name": "PartitionedCall/PartitionedCall/model/tf.math.multiply_42/Mul", "op": "Mul", "input": ["PartitionedCall/PartitionedCall/model/tf.math.add_35/Add", "PartitionedCall/PartitionedCall/model/tf.math.maximum_6/Maximum"], "attr": {"T": {"type": "DT_FLOAT"}}}, {"name": "PartitionedCall/PartitionedCall/model/tf.compat.v1.nn.depthwise_conv2d_7/depthwise", "op": "FusedDepthwiseConv2dNative", "input": ["PartitionedCall/PartitionedCall/model/tf.math.multiply_42/Mul", "unknown_80", "unknown_81"], "attr": {"padding": {"s": "U0FNRQ=="}, "T": {"type": "DT_FLOAT"}, "_input_shapes": {"list": {"shape": [{"dim": [{"size": "-2"}, {"size": "-9"}, {"size": "-10"}, {"size": "200"}]}, {"dim": [{"size": "3"}, {"size": "3"}, {"size": "200"}, {"size": "1"}]}]}}, "data_format": {"s": "TkhXQw=="}, "explicit_paddings": {"list": {}}, "dilations": {"list": {"i": ["1", "1", "1", "1"]}}, "strides": {"list": {"i": ["1", "1", "1", "1"]}}, "num_args": {"i": "1"}, "fused_ops": {"list": {"s": ["Qmlhc0FkZA=="]}}}}, {"name": "PartitionedCall/PartitionedCall/model/tf.math.multiply_43/Mul", "op": "Mul", "input": ["unknown_82", "PartitionedCall/PartitionedCall/model/tf.compat.v1.nn.depthwise_conv2d_7/depthwise"], "attr": {"T": {"type": "DT_FLOAT"}}}, {"name": "PartitionedCall/PartitionedCall/model/tf.__operators__.add_7/AddV2", "op": "AddV2", "input": ["PartitionedCall/PartitionedCall/model/tf.math.multiply_43/Mul", "PartitionedCall/PartitionedCall/model/tf.__operators__.add_7/y"], "attr": {"T": {"type": "DT_FLOAT"}}}, {"name": "PartitionedCall/PartitionedCall/model/tf.math.minimum_7/Minimum", "op": "Minimum", "input": ["unknown_83", "PartitionedCall/PartitionedCall/model/tf.__operators__.add_7/AddV2"], "attr": {"T": {"type": "DT_FLOAT"}}}, {"name": "PartitionedCall/PartitionedCall/model/tf.math.maximum_7/Maximum", "op": "Maximum", "input": ["unknown_84", "PartitionedCall/PartitionedCall/model/tf.math.minimum_7/Minimum"], "attr": {"T": {"type": "DT_FLOAT"}}}, {"name": "PartitionedCall/PartitionedCall/model/tf.math.multiply_47/Mul", "op": "Mul", "input": ["PartitionedCall/PartitionedCall/model/tf.compat.v1.nn.depthwise_conv2d_7/depthwise", "PartitionedCall/PartitionedCall/model/tf.math.maximum_7/Maximum"], "attr": {"T": {"type": "DT_FLOAT"}}}, {"name": "PartitionedCall/PartitionedCall/model/tf.nn.convolution_21/convolution", "op": "Conv2D", "input": ["PartitionedCall/PartitionedCall/model/tf.math.multiply_47/Mul", "unknown_85"], "device": "/device:CPU:0", "attr": {"data_format": {"s": "TkhXQw=="}, "_input_shapes": {"list": {"shape": [{"dim": [{"size": "-2"}, {"size": "-9"}, {"size": "-10"}, {"size": "200"}]}, {"dim": [{"size": "1"}, {"size": "1"}, {"size": "200"}, {"size": "80"}]}]}}, "strides": {"list": {"i": ["1", "1", "1", "1"]}}, "dilations": {"list": {"i": ["1", "1", "1", "1"]}}, "explicit_paddings": {"list": {}}, "use_cudnn_on_gpu": {"b": true}, "T": {"type": "DT_FLOAT"}, "padding": {"s": "U0FNRQ=="}}}, {"name": "PartitionedCall/PartitionedCall/model/tf.math.add_39/ArithmeticOptimizer/AddOpsRewrite_Leaf_1_Add", "op": "AddN", "input": ["PartitionedCall/PartitionedCall/model/tf.nn.convolution_21/convolution", "PartitionedCall/PartitionedCall/model/tf.math.add_34/Add"], "attr": {"T": {"type": "DT_FLOAT"}, "_grappler_ArithmeticOptimizer_AddOpsRewriteStage": {"b": true}, "N": {"i": "2"}}}, {"name": "PartitionedCall/PartitionedCall/model/tf.math.add_39/ArithmeticOptimizer/AddOpsRewrite_Add", "op": "AddV2", "input": ["unknown_86", "PartitionedCall/PartitionedCall/model/tf.math.add_39/ArithmeticOptimizer/AddOpsRewrite_Leaf_1_Add"], "attr": {"_grappler_ArithmeticOptimizer_AddOpsRewriteStage": {"b": true}, "T": {"type": "DT_FLOAT"}}}, {"name": "PartitionedCall/PartitionedCall/model/tf.math.add_40/Add", "op": "_FusedConv2D", "input": ["PartitionedCall/PartitionedCall/model/tf.math.add_39/ArithmeticOptimizer/AddOpsRewrite_Add", "unknown_87", "unknown_88"], "device": "/device:CPU:0", "attr": {"fused_ops": {"list": {"s": ["Qmlhc0FkZA=="]}}, "explicit_paddings": {"list": {}}, "_input_shapes": {"list": {"shape": [{"dim": [{"size": "-2"}, {"size": "-9"}, {"size": "-10"}, {"size": "80"}]}, {"dim": [{"size": "1"}, {"size": "1"}, {"size": "80"}, {"size": "184"}]}]}}, "leakyrelu_alpha": {"f": 0.2}, "TArgs": {"list": {"type": ["DT_FLOAT"]}}, "use_cudnn_on_gpu": {"b": true}, "num_host_args": {"i": "0"}, "dilations": {"list": {"i": ["1", "1", "1", "1"]}}, "num_args": {"i": "1"}, "data_format": {"s": "TkhXQw=="}, "filter_format": {"s": "SFdJTw=="}, "T": {"type": "DT_FLOAT"}, "epsilon": {"f": 0.0}, "strides": {"list": {"i": ["1", "1", "1", "1"]}}, "padding": {"s": "U0FNRQ=="}}}, {"name": "PartitionedCall/PartitionedCall/model/tf.math.multiply_50/Mul", "op": "Mul", "input": ["unknown_89", "PartitionedCall/PartitionedCall/model/tf.math.add_40/Add"], "attr": {"T": {"type": "DT_FLOAT"}}}, {"name": "PartitionedCall/PartitionedCall/model/tf.__operators__.add_8/AddV2", "op": "AddV2", "input": ["PartitionedCall/PartitionedCall/model/tf.math.multiply_50/Mul", "PartitionedCall/PartitionedCall/model/tf.__operators__.add_8/y"], "attr": {"T": {"type": "DT_FLOAT"}}}, {"name": "PartitionedCall/PartitionedCall/model/tf.math.minimum_8/Minimum", "op": "Minimum", "input": ["unknown_90", "PartitionedCall/PartitionedCall/model/tf.__operators__.add_8/AddV2"], "attr": {"T": {"type": "DT_FLOAT"}}}, {"name": "PartitionedCall/PartitionedCall/model/tf.math.maximum_8/Maximum", "op": "Maximum", "input": ["unknown_91", "PartitionedCall/PartitionedCall/model/tf.math.minimum_8/Minimum"], "attr": {"T": {"type": "DT_FLOAT"}}}, {"name": "PartitionedCall/PartitionedCall/model/tf.math.multiply_54/Mul", "op": "Mul", "input": ["PartitionedCall/PartitionedCall/model/tf.math.add_40/Add", "PartitionedCall/PartitionedCall/model/tf.math.maximum_8/Maximum"], "attr": {"T": {"type": "DT_FLOAT"}}}, {"name": "PartitionedCall/PartitionedCall/model/tf.compat.v1.nn.depthwise_conv2d_8/depthwise", "op": "FusedDepthwiseConv2dNative", "input": ["PartitionedCall/PartitionedCall/model/tf.math.multiply_54/Mul", "unknown_92", "unknown_93"], "attr": {"padding": {"s": "U0FNRQ=="}, "data_format": {"s": "TkhXQw=="}, "dilations": {"list": {"i": ["1", "1", "1", "1"]}}, "strides": {"list": {"i": ["1", "1", "1", "1"]}}, "T": {"type": "DT_FLOAT"}, "explicit_paddings": {"list": {}}, "_input_shapes": {"list": {"shape": [{"dim": [{"size": "-2"}, {"size": "-9"}, {"size": "-10"}, {"size": "184"}]}, {"dim": [{"size": "3"}, {"size": "3"}, {"size": "184"}, {"size": "1"}]}]}}, "num_args": {"i": "1"}, "fused_ops": {"list": {"s": ["Qmlhc0FkZA=="]}}}}, {"name": "PartitionedCall/PartitionedCall/model/tf.math.multiply_55/Mul", "op": "Mul", "input": ["unknown_94", "PartitionedCall/PartitionedCall/model/tf.compat.v1.nn.depthwise_conv2d_8/depthwise"], "attr": {"T": {"type": "DT_FLOAT"}}}, {"name": "PartitionedCall/PartitionedCall/model/tf.__operators__.add_9/AddV2", "op": "AddV2", "input": ["PartitionedCall/PartitionedCall/model/tf.math.multiply_55/Mul", "PartitionedCall/PartitionedCall/model/tf.__operators__.add_9/y"], "attr": {"T": {"type": "DT_FLOAT"}}}, {"name": "PartitionedCall/PartitionedCall/model/tf.math.minimum_9/Minimum", "op": "Minimum", "input": ["unknown_95", "PartitionedCall/PartitionedCall/model/tf.__operators__.add_9/AddV2"], "attr": {"T": {"type": "DT_FLOAT"}}}, {"name": "PartitionedCall/PartitionedCall/model/tf.math.maximum_9/Maximum", "op": "Maximum", "input": ["unknown_96", "PartitionedCall/PartitionedCall/model/tf.math.minimum_9/Minimum"], "attr": {"T": {"type": "DT_FLOAT"}}}, {"name": "PartitionedCall/PartitionedCall/model/tf.math.multiply_59/Mul", "op": "Mul", "input": ["PartitionedCall/PartitionedCall/model/tf.compat.v1.nn.depthwise_conv2d_8/depthwise", "PartitionedCall/PartitionedCall/model/tf.math.maximum_9/Maximum"], "attr": {"T": {"type": "DT_FLOAT"}}}, {"name": "PartitionedCall/PartitionedCall/model/tf.nn.convolution_23/convolution", "op": "Conv2D", "input": ["PartitionedCall/PartitionedCall/model/tf.math.multiply_59/Mul", "unknown_97"], "device": "/device:CPU:0", "attr": {"strides": {"list": {"i": ["1", "1", "1", "1"]}}, "use_cudnn_on_gpu": {"b": true}, "dilations": {"list": {"i": ["1", "1", "1", "1"]}}, "explicit_paddings": {"list": {}}, "T": {"type": "DT_FLOAT"}, "_input_shapes": {"list": {"shape": [{"dim": [{"size": "-2"}, {"size": "-9"}, {"size": "-10"}, {"size": "184"}]}, {"dim": [{"size": "1"}, {"size": "1"}, {"size": "184"}, {"size": "80"}]}]}}, "padding": {"s": "U0FNRQ=="}, "data_format": {"s": "TkhXQw=="}}}, {"name": "PartitionedCall/PartitionedCall/model/tf.math.add_44/ArithmeticOptimizer/AddOpsRewrite_Leaf_1_Add", "op": "AddN", "input": ["PartitionedCall/PartitionedCall/model/tf.nn.convolution_23/convolution", "PartitionedCall/PartitionedCall/model/tf.math.add_39/ArithmeticOptimizer/AddOpsRewrite_Add"], "attr": {"T": {"type": "DT_FLOAT"}, "N": {"i": "2"}, "_grappler_ArithmeticOptimizer_AddOpsRewriteStage": {"b": true}}}, {"name": "PartitionedCall/PartitionedCall/model/tf.math.add_44/ArithmeticOptimizer/AddOpsRewrite_Add", "op": "AddV2", "input": ["unknown_98", "PartitionedCall/PartitionedCall/model/tf.math.add_44/ArithmeticOptimizer/AddOpsRewrite_Leaf_1_Add"], "attr": {"T": {"type": "DT_FLOAT"}, "_grappler_ArithmeticOptimizer_AddOpsRewriteStage": {"b": true}}}, {"name": "PartitionedCall/PartitionedCall/model/tf.math.add_45/Add", "op": "_FusedConv2D", "input": ["PartitionedCall/PartitionedCall/model/tf.math.add_44/ArithmeticOptimizer/AddOpsRewrite_Add", "unknown_99", "unknown_100"], "device": "/device:CPU:0", "attr": {"dilations": {"list": {"i": ["1", "1", "1", "1"]}}, "T": {"type": "DT_FLOAT"}, "filter_format": {"s": "SFdJTw=="}, "num_host_args": {"i": "0"}, "use_cudnn_on_gpu": {"b": true}, "explicit_paddings": {"list": {}}, "padding": {"s": "U0FNRQ=="}, "_input_shapes": {"list": {"shape": [{"dim": [{"size": "-2"}, {"size": "-9"}, {"size": "-10"}, {"size": "80"}]}, {"dim": [{"size": "1"}, {"size": "1"}, {"size": "80"}, {"size": "184"}]}]}}, "num_args": {"i": "1"}, "fused_ops": {"list": {"s": ["Qmlhc0FkZA=="]}}, "data_format": {"s": "TkhXQw=="}, "leakyrelu_alpha": {"f": 0.2}, "TArgs": {"list": {"type": ["DT_FLOAT"]}}, "epsilon": {"f": 0.0}, "strides": {"list": {"i": ["1", "1", "1", "1"]}}}}, {"name": "PartitionedCall/PartitionedCall/model/tf.math.multiply_62/Mul", "op": "Mul", "input": ["unknown_101", "PartitionedCall/PartitionedCall/model/tf.math.add_45/Add"], "attr": {"T": {"type": "DT_FLOAT"}}}, {"name": "PartitionedCall/PartitionedCall/model/tf.__operators__.add_10/AddV2", "op": "AddV2", "input": ["PartitionedCall/PartitionedCall/model/tf.math.multiply_62/Mul", "PartitionedCall/PartitionedCall/model/tf.__operators__.add_10/y"], "attr": {"T": {"type": "DT_FLOAT"}}}, {"name": "PartitionedCall/PartitionedCall/model/tf.math.minimum_10/Minimum", "op": "Minimum", "input": ["unknown_102", "PartitionedCall/PartitionedCall/model/tf.__operators__.add_10/AddV2"], "attr": {"T": {"type": "DT_FLOAT"}}}, {"name": "PartitionedCall/PartitionedCall/model/tf.math.maximum_10/Maximum", "op": "Maximum", "input": ["unknown_103", "PartitionedCall/PartitionedCall/model/tf.math.minimum_10/Minimum"], "attr": {"T": {"type": "DT_FLOAT"}}}, {"name": "PartitionedCall/PartitionedCall/model/tf.math.multiply_66/Mul", "op": "Mul", "input": ["PartitionedCall/PartitionedCall/model/tf.math.add_45/Add", "PartitionedCall/PartitionedCall/model/tf.math.maximum_10/Maximum"], "attr": {"T": {"type": "DT_FLOAT"}}}, {"name": "PartitionedCall/PartitionedCall/model/tf.compat.v1.nn.depthwise_conv2d_9/depthwise", "op": "FusedDepthwiseConv2dNative", "input": ["PartitionedCall/PartitionedCall/model/tf.math.multiply_66/Mul", "unknown_104", "unknown_105"], "attr": {"strides": {"list": {"i": ["1", "1", "1", "1"]}}, "data_format": {"s": "TkhXQw=="}, "dilations": {"list": {"i": ["1", "1", "1", "1"]}}, "padding": {"s": "U0FNRQ=="}, "T": {"type": "DT_FLOAT"}, "_input_shapes": {"list": {"shape": [{"dim": [{"size": "-2"}, {"size": "-9"}, {"size": "-10"}, {"size": "184"}]}, {"dim": [{"size": "3"}, {"size": "3"}, {"size": "184"}, {"size": "1"}]}]}}, "explicit_paddings": {"list": {}}, "num_args": {"i": "1"}, "fused_ops": {"list": {"s": ["Qmlhc0FkZA=="]}}}}, {"name": "PartitionedCall/PartitionedCall/model/tf.math.multiply_67/Mul", "op": "Mul", "input": ["unknown_106", "PartitionedCall/PartitionedCall/model/tf.compat.v1.nn.depthwise_conv2d_9/depthwise"], "attr": {"T": {"type": "DT_FLOAT"}}}, {"name": "PartitionedCall/PartitionedCall/model/tf.__operators__.add_11/AddV2", "op": "AddV2", "input": ["PartitionedCall/PartitionedCall/model/tf.math.multiply_67/Mul", "PartitionedCall/PartitionedCall/model/tf.__operators__.add_11/y"], "attr": {"T": {"type": "DT_FLOAT"}}}, {"name": "PartitionedCall/PartitionedCall/model/tf.math.minimum_11/Minimum", "op": "Minimum", "input": ["unknown_107", "PartitionedCall/PartitionedCall/model/tf.__operators__.add_11/AddV2"], "attr": {"T": {"type": "DT_FLOAT"}}}, {"name": "PartitionedCall/PartitionedCall/model/tf.math.maximum_11/Maximum", "op": "Maximum", "input": ["unknown_108", "PartitionedCall/PartitionedCall/model/tf.math.minimum_11/Minimum"], "attr": {"T": {"type": "DT_FLOAT"}}}, {"name": "PartitionedCall/PartitionedCall/model/tf.math.multiply_71/Mul", "op": "Mul", "input": ["PartitionedCall/PartitionedCall/model/tf.compat.v1.nn.depthwise_conv2d_9/depthwise", "PartitionedCall/PartitionedCall/model/tf.math.maximum_11/Maximum"], "attr": {"T": {"type": "DT_FLOAT"}}}, {"name": "PartitionedCall/PartitionedCall/model/tf.nn.convolution_25/convolution", "op": "Conv2D", "input": ["PartitionedCall/PartitionedCall/model/tf.math.multiply_71/Mul", "unknown_109"], "device": "/device:CPU:0", "attr": {"use_cudnn_on_gpu": {"b": true}, "T": {"type": "DT_FLOAT"}, "data_format": {"s": "TkhXQw=="}, "strides": {"list": {"i": ["1", "1", "1", "1"]}}, "explicit_paddings": {"list": {}}, "padding": {"s": "U0FNRQ=="}, "dilations": {"list": {"i": ["1", "1", "1", "1"]}}, "_input_shapes": {"list": {"shape": [{"dim": [{"size": "-2"}, {"size": "-9"}, {"size": "-10"}, {"size": "184"}]}, {"dim": [{"size": "1"}, {"size": "1"}, {"size": "184"}, {"size": "80"}]}]}}}}, {"name": "PartitionedCall/PartitionedCall/model/tf.math.add_49/ArithmeticOptimizer/AddOpsRewrite_Leaf_1_Add", "op": "AddN", "input": ["PartitionedCall/PartitionedCall/model/tf.nn.convolution_25/convolution", "PartitionedCall/PartitionedCall/model/tf.math.add_44/ArithmeticOptimizer/AddOpsRewrite_Add"], "attr": {"N": {"i": "2"}, "_grappler_ArithmeticOptimizer_AddOpsRewriteStage": {"b": true}, "T": {"type": "DT_FLOAT"}}}, {"name": "PartitionedCall/PartitionedCall/model/tf.math.add_49/ArithmeticOptimizer/AddOpsRewrite_Add", "op": "AddV2", "input": ["unknown_110", "PartitionedCall/PartitionedCall/model/tf.math.add_49/ArithmeticOptimizer/AddOpsRewrite_Leaf_1_Add"], "attr": {"T": {"type": "DT_FLOAT"}, "_grappler_ArithmeticOptimizer_AddOpsRewriteStage": {"b": true}}}, {"name": "PartitionedCall/PartitionedCall/model/tf.math.add_50/Add", "op": "_FusedConv2D", "input": ["PartitionedCall/PartitionedCall/model/tf.math.add_49/ArithmeticOptimizer/AddOpsRewrite_Add", "unknown_111", "unknown_112"], "device": "/device:CPU:0", "attr": {"explicit_paddings": {"list": {}}, "num_host_args": {"i": "0"}, "data_format": {"s": "TkhXQw=="}, "fused_ops": {"list": {"s": ["Qmlhc0FkZA=="]}}, "epsilon": {"f": 0.0}, "dilations": {"list": {"i": ["1", "1", "1", "1"]}}, "num_args": {"i": "1"}, "filter_format": {"s": "SFdJTw=="}, "padding": {"s": "U0FNRQ=="}, "T": {"type": "DT_FLOAT"}, "leakyrelu_alpha": {"f": 0.2}, "strides": {"list": {"i": ["1", "1", "1", "1"]}}, "use_cudnn_on_gpu": {"b": true}, "_input_shapes": {"list": {"shape": [{"dim": [{"size": "-2"}, {"size": "-9"}, {"size": "-10"}, {"size": "80"}]}, {"dim": [{"size": "1"}, {"size": "1"}, {"size": "80"}, {"size": "480"}]}]}}, "TArgs": {"list": {"type": ["DT_FLOAT"]}}}}, {"name": "PartitionedCall/PartitionedCall/model/tf.math.multiply_74/Mul", "op": "Mul", "input": ["unknown_113", "PartitionedCall/PartitionedCall/model/tf.math.add_50/Add"], "attr": {"T": {"type": "DT_FLOAT"}}}, {"name": "PartitionedCall/PartitionedCall/model/tf.__operators__.add_12/AddV2", "op": "AddV2", "input": ["PartitionedCall/PartitionedCall/model/tf.math.multiply_74/Mul", "PartitionedCall/PartitionedCall/model/tf.__operators__.add_12/y"], "attr": {"T": {"type": "DT_FLOAT"}}}, {"name": "PartitionedCall/PartitionedCall/model/tf.math.minimum_12/Minimum", "op": "Minimum", "input": ["unknown_114", "PartitionedCall/PartitionedCall/model/tf.__operators__.add_12/AddV2"], "attr": {"T": {"type": "DT_FLOAT"}}}, {"name": "PartitionedCall/PartitionedCall/model/tf.math.maximum_12/Maximum", "op": "Maximum", "input": ["unknown_115", "PartitionedCall/PartitionedCall/model/tf.math.minimum_12/Minimum"], "attr": {"T": {"type": "DT_FLOAT"}}}, {"name": "PartitionedCall/PartitionedCall/model/tf.math.multiply_78/Mul", "op": "Mul", "input": ["PartitionedCall/PartitionedCall/model/tf.math.add_50/Add", "PartitionedCall/PartitionedCall/model/tf.math.maximum_12/Maximum"], "attr": {"T": {"type": "DT_FLOAT"}}}, {"name": "PartitionedCall/PartitionedCall/model/tf.compat.v1.nn.depthwise_conv2d_10/depthwise", "op": "FusedDepthwiseConv2dNative", "input": ["PartitionedCall/PartitionedCall/model/tf.math.multiply_78/Mul", "unknown_116", "unknown_117"], "attr": {"_input_shapes": {"list": {"shape": [{"dim": [{"size": "-2"}, {"size": "-9"}, {"size": "-10"}, {"size": "480"}]}, {"dim": [{"size": "3"}, {"size": "3"}, {"size": "480"}, {"size": "1"}]}]}}, "padding": {"s": "U0FNRQ=="}, "data_format": {"s": "TkhXQw=="}, "strides": {"list": {"i": ["1", "1", "1", "1"]}}, "explicit_paddings": {"list": {}}, "T": {"type": "DT_FLOAT"}, "dilations": {"list": {"i": ["1", "1", "1", "1"]}}, "num_args": {"i": "1"}, "fused_ops": {"list": {"s": ["Qmlhc0FkZA=="]}}}}, {"name": "PartitionedCall/PartitionedCall/model/tf.math.multiply_79/Mul", "op": "Mul", "input": ["unknown_118", "PartitionedCall/PartitionedCall/model/tf.compat.v1.nn.depthwise_conv2d_10/depthwise"], "attr": {"T": {"type": "DT_FLOAT"}}}, {"name": "PartitionedCall/PartitionedCall/model/tf.__operators__.add_13/AddV2", "op": "AddV2", "input": ["PartitionedCall/PartitionedCall/model/tf.math.multiply_79/Mul", "PartitionedCall/PartitionedCall/model/tf.__operators__.add_13/y"], "attr": {"T": {"type": "DT_FLOAT"}}}, {"name": "PartitionedCall/PartitionedCall/model/tf.math.minimum_13/Minimum", "op": "Minimum", "input": ["unknown_119", "PartitionedCall/PartitionedCall/model/tf.__operators__.add_13/AddV2"], "attr": {"T": {"type": "DT_FLOAT"}}}, {"name": "PartitionedCall/PartitionedCall/model/tf.math.maximum_13/Maximum", "op": "Maximum", "input": ["unknown_120", "PartitionedCall/PartitionedCall/model/tf.math.minimum_13/Minimum"], "attr": {"T": {"type": "DT_FLOAT"}}}, {"name": "PartitionedCall/PartitionedCall/model/tf.math.multiply_83/Mul", "op": "Mul", "input": ["PartitionedCall/PartitionedCall/model/tf.compat.v1.nn.depthwise_conv2d_10/depthwise", "PartitionedCall/PartitionedCall/model/tf.math.maximum_13/Maximum"], "attr": {"T": {"type": "DT_FLOAT"}}}, {"name": "PartitionedCall/PartitionedCall/model/tf.math.reduce_mean_3/Mean", "op": "Mean", "input": ["PartitionedCall/PartitionedCall/model/tf.math.multiply_83/Mul", "PartitionedCall/PartitionedCall/model/tf.math.reduce_mean_3/Mean/reduction_indices"], "attr": {"Tidx": {"type": "DT_INT32"}, "keep_dims": {"b": true}, "T": {"type": "DT_FLOAT"}}}, {"name": "PartitionedCall/PartitionedCall/model/tf.nn.relu_14/Relu", "op": "_FusedConv2D", "input": ["PartitionedCall/PartitionedCall/model/tf.math.reduce_mean_3/Mean", "unknown_121", "unknown_122"], "device": "/device:CPU:0", "attr": {"explicit_paddings": {"list": {}}, "T": {"type": "DT_FLOAT"}, "leakyrelu_alpha": {"f": 0.2}, "fused_ops": {"list": {"s": ["Qmlhc0FkZA==", "UmVsdQ=="]}}, "dilations": {"list": {"i": ["1", "1", "1", "1"]}}, "filter_format": {"s": "SFdJTw=="}, "padding": {"s": "U0FNRQ=="}, "data_format": {"s": "TkhXQw=="}, "num_host_args": {"i": "0"}, "epsilon": {"f": 0.0}, "_input_shapes": {"list": {"shape": [{"dim": [{"size": "-2"}, {"size": "1"}, {"size": "1"}, {"size": "480"}]}, {"dim": [{"size": "1"}, {"size": "1"}, {"size": "480"}, {"size": "120"}]}]}}, "TArgs": {"list": {"type": ["DT_FLOAT"]}}, "num_args": {"i": "1"}, "strides": {"list": {"i": ["1", "1", "1", "1"]}}, "use_cudnn_on_gpu": {"b": true}}}, {"name": "PartitionedCall/PartitionedCall/model/tf.math.add_53/Add", "op": "_FusedConv2D", "input": ["PartitionedCall/PartitionedCall/model/tf.nn.relu_14/Relu", "unknown_123", "unknown_124"], "device": "/device:CPU:0", "attr": {"T": {"type": "DT_FLOAT"}, "epsilon": {"f": 0.0}, "explicit_paddings": {"list": {}}, "num_args": {"i": "1"}, "strides": {"list": {"i": ["1", "1", "1", "1"]}}, "padding": {"s": "U0FNRQ=="}, "num_host_args": {"i": "0"}, "_input_shapes": {"list": {"shape": [{"dim": [{"size": "-2"}, {"size": "1"}, {"size": "1"}, {"size": "120"}]}, {"dim": [{"size": "1"}, {"size": "1"}, {"size": "120"}, {"size": "480"}]}]}}, "TArgs": {"list": {"type": ["DT_FLOAT"]}}, "fused_ops": {"list": {"s": ["Qmlhc0FkZA=="]}}, "leakyrelu_alpha": {"f": 0.2}, "filter_format": {"s": "SFdJTw=="}, "data_format": {"s": "TkhXQw=="}, "use_cudnn_on_gpu": {"b": true}, "dilations": {"list": {"i": ["1", "1", "1", "1"]}}}}, {"name": "PartitionedCall/PartitionedCall/model/tf.math.multiply_84/Mul", "op": "Mul", "input": ["unknown_125", "PartitionedCall/PartitionedCall/model/tf.math.add_53/Add"], "attr": {"T": {"type": "DT_FLOAT"}}}, {"name": "PartitionedCall/PartitionedCall/model/tf.__operators__.add_14/AddV2", "op": "AddV2", "input": ["PartitionedCall/PartitionedCall/model/tf.math.multiply_84/Mul", "PartitionedCall/PartitionedCall/model/tf.__operators__.add_14/y"], "attr": {"T": {"type": "DT_FLOAT"}}}, {"name": "PartitionedCall/PartitionedCall/model/tf.math.minimum_14/Minimum", "op": "Minimum", "input": ["unknown_126", "PartitionedCall/PartitionedCall/model/tf.__operators__.add_14/AddV2"], "attr": {"T": {"type": "DT_FLOAT"}}}, {"name": "PartitionedCall/PartitionedCall/model/tf.math.maximum_14/Maximum", "op": "Maximum", "input": ["unknown_127", "PartitionedCall/PartitionedCall/model/tf.math.minimum_14/Minimum"], "attr": {"T": {"type": "DT_FLOAT"}}}, {"name": "PartitionedCall/PartitionedCall/model/tf.math.multiply_88/Mul", "op": "Mul", "input": ["PartitionedCall/PartitionedCall/model/tf.math.maximum_14/Maximum", "PartitionedCall/PartitionedCall/model/tf.math.multiply_83/Mul"], "attr": {"T": {"type": "DT_FLOAT"}}}, {"name": "PartitionedCall/PartitionedCall/model/tf.math.add_54/Add", "op": "_FusedConv2D", "input": ["PartitionedCall/PartitionedCall/model/tf.math.multiply_88/Mul", "unknown_128", "unknown_129"], "device": "/device:CPU:0", "attr": {"T": {"type": "DT_FLOAT"}, "TArgs": {"list": {"type": ["DT_FLOAT"]}}, "strides": {"list": {"i": ["1", "1", "1", "1"]}}, "num_host_args": {"i": "0"}, "explicit_paddings": {"list": {}}, "dilations": {"list": {"i": ["1", "1", "1", "1"]}}, "_input_shapes": {"list": {"shape": [{"dim": [{"size": "-2"}, {"size": "-9"}, {"size": "-10"}, {"size": "480"}]}, {"dim": [{"size": "1"}, {"size": "1"}, {"size": "480"}, {"size": "112"}]}]}}, "padding": {"s": "U0FNRQ=="}, "data_format": {"s": "TkhXQw=="}, "fused_ops": {"list": {"s": ["Qmlhc0FkZA=="]}}, "leakyrelu_alpha": {"f": 0.2}, "use_cudnn_on_gpu": {"b": true}, "num_args": {"i": "1"}, "epsilon": {"f": 0.0}, "filter_format": {"s": "SFdJTw=="}}}, {"name": "PartitionedCall/PartitionedCall/model/tf.math.add_55/Add", "op": "_FusedConv2D", "input": ["PartitionedCall/PartitionedCall/model/tf.math.add_54/Add", "unknown_130", "unknown_131"], "device": "/device:CPU:0", "attr": {"num_host_args": {"i": "0"}, "use_cudnn_on_gpu": {"b": true}, "TArgs": {"list": {"type": ["DT_FLOAT"]}}, "T": {"type": "DT_FLOAT"}, "num_args": {"i": "1"}, "filter_format": {"s": "SFdJTw=="}, "_input_shapes": {"list": {"shape": [{"dim": [{"size": "-2"}, {"size": "-9"}, {"size": "-10"}, {"size": "112"}]}, {"dim": [{"size": "1"}, {"size": "1"}, {"size": "112"}, {"size": "672"}]}]}}, "data_format": {"s": "TkhXQw=="}, "fused_ops": {"list": {"s": ["Qmlhc0FkZA=="]}}, "epsilon": {"f": 0.0}, "leakyrelu_alpha": {"f": 0.2}, "dilations": {"list": {"i": ["1", "1", "1", "1"]}}, "padding": {"s": "U0FNRQ=="}, "explicit_paddings": {"list": {}}, "strides": {"list": {"i": ["1", "1", "1", "1"]}}}}, {"name": "PartitionedCall/PartitionedCall/model/tf.math.multiply_89/Mul", "op": "Mul", "input": ["unknown_132", "PartitionedCall/PartitionedCall/model/tf.math.add_55/Add"], "attr": {"T": {"type": "DT_FLOAT"}}}, {"name": "PartitionedCall/PartitionedCall/model/tf.__operators__.add_15/AddV2", "op": "AddV2", "input": ["PartitionedCall/PartitionedCall/model/tf.math.multiply_89/Mul", "PartitionedCall/PartitionedCall/model/tf.__operators__.add_15/y"], "attr": {"T": {"type": "DT_FLOAT"}}}, {"name": "PartitionedCall/PartitionedCall/model/tf.math.minimum_15/Minimum", "op": "Minimum", "input": ["unknown_133", "PartitionedCall/PartitionedCall/model/tf.__operators__.add_15/AddV2"], "attr": {"T": {"type": "DT_FLOAT"}}}, {"name": "PartitionedCall/PartitionedCall/model/tf.math.maximum_15/Maximum", "op": "Maximum", "input": ["unknown_134", "PartitionedCall/PartitionedCall/model/tf.math.minimum_15/Minimum"], "attr": {"T": {"type": "DT_FLOAT"}}}, {"name": "PartitionedCall/PartitionedCall/model/tf.math.multiply_93/Mul", "op": "Mul", "input": ["PartitionedCall/PartitionedCall/model/tf.math.add_55/Add", "PartitionedCall/PartitionedCall/model/tf.math.maximum_15/Maximum"], "attr": {"T": {"type": "DT_FLOAT"}}}, {"name": "PartitionedCall/PartitionedCall/model/tf.compat.v1.nn.depthwise_conv2d_11/depthwise", "op": "FusedDepthwiseConv2dNative", "input": ["PartitionedCall/PartitionedCall/model/tf.math.multiply_93/Mul", "unknown_135", "unknown_136"], "attr": {"data_format": {"s": "TkhXQw=="}, "T": {"type": "DT_FLOAT"}, "dilations": {"list": {"i": ["1", "1", "1", "1"]}}, "padding": {"s": "U0FNRQ=="}, "strides": {"list": {"i": ["1", "1", "1", "1"]}}, "_input_shapes": {"list": {"shape": [{"dim": [{"size": "-2"}, {"size": "-9"}, {"size": "-10"}, {"size": "672"}]}, {"dim": [{"size": "3"}, {"size": "3"}, {"size": "672"}, {"size": "1"}]}]}}, "explicit_paddings": {"list": {}}, "num_args": {"i": "1"}, "fused_ops": {"list": {"s": ["Qmlhc0FkZA=="]}}}}, {"name": "PartitionedCall/PartitionedCall/model/tf.math.multiply_94/Mul", "op": "Mul", "input": ["unknown_137", "PartitionedCall/PartitionedCall/model/tf.compat.v1.nn.depthwise_conv2d_11/depthwise"], "attr": {"T": {"type": "DT_FLOAT"}}}, {"name": "PartitionedCall/PartitionedCall/model/tf.__operators__.add_16/AddV2", "op": "AddV2", "input": ["PartitionedCall/PartitionedCall/model/tf.math.multiply_94/Mul", "PartitionedCall/PartitionedCall/model/tf.__operators__.add_16/y"], "attr": {"T": {"type": "DT_FLOAT"}}}, {"name": "PartitionedCall/PartitionedCall/model/tf.math.minimum_16/Minimum", "op": "Minimum", "input": ["unknown_138", "PartitionedCall/PartitionedCall/model/tf.__operators__.add_16/AddV2"], "attr": {"T": {"type": "DT_FLOAT"}}}, {"name": "PartitionedCall/PartitionedCall/model/tf.math.maximum_16/Maximum", "op": "Maximum", "input": ["unknown_139", "PartitionedCall/PartitionedCall/model/tf.math.minimum_16/Minimum"], "attr": {"T": {"type": "DT_FLOAT"}}}, {"name": "PartitionedCall/PartitionedCall/model/tf.math.multiply_98/Mul", "op": "Mul", "input": ["PartitionedCall/PartitionedCall/model/tf.compat.v1.nn.depthwise_conv2d_11/depthwise", "PartitionedCall/PartitionedCall/model/tf.math.maximum_16/Maximum"], "attr": {"T": {"type": "DT_FLOAT"}}}, {"name": "PartitionedCall/PartitionedCall/model/tf.math.reduce_mean_4/Mean", "op": "Mean", "input": ["PartitionedCall/PartitionedCall/model/tf.math.multiply_98/Mul", "PartitionedCall/PartitionedCall/model/tf.math.reduce_mean_4/Mean/reduction_indices"], "attr": {"Tidx": {"type": "DT_INT32"}, "T": {"type": "DT_FLOAT"}, "keep_dims": {"b": true}}}, {"name": "PartitionedCall/PartitionedCall/model/tf.nn.relu_15/Relu", "op": "_FusedConv2D", "input": ["PartitionedCall/PartitionedCall/model/tf.math.reduce_mean_4/Mean", "unknown_140", "unknown_141"], "device": "/device:CPU:0", "attr": {"explicit_paddings": {"list": {}}, "num_args": {"i": "1"}, "epsilon": {"f": 0.0}, "_input_shapes": {"list": {"shape": [{"dim": [{"size": "-2"}, {"size": "1"}, {"size": "1"}, {"size": "672"}]}, {"dim": [{"size": "1"}, {"size": "1"}, {"size": "672"}, {"size": "168"}]}]}}, "TArgs": {"list": {"type": ["DT_FLOAT"]}}, "leakyrelu_alpha": {"f": 0.2}, "dilations": {"list": {"i": ["1", "1", "1", "1"]}}, "strides": {"list": {"i": ["1", "1", "1", "1"]}}, "num_host_args": {"i": "0"}, "data_format": {"s": "TkhXQw=="}, "use_cudnn_on_gpu": {"b": true}, "padding": {"s": "U0FNRQ=="}, "T": {"type": "DT_FLOAT"}, "fused_ops": {"list": {"s": ["Qmlhc0FkZA==", "UmVsdQ=="]}}, "filter_format": {"s": "SFdJTw=="}}}, {"name": "PartitionedCall/PartitionedCall/model/tf.math.add_58/Add", "op": "_FusedConv2D", "input": ["PartitionedCall/PartitionedCall/model/tf.nn.relu_15/Relu", "unknown_142", "unknown_143"], "device": "/device:CPU:0", "attr": {"strides": {"list": {"i": ["1", "1", "1", "1"]}}, "num_host_args": {"i": "0"}, "padding": {"s": "U0FNRQ=="}, "data_format": {"s": "TkhXQw=="}, "use_cudnn_on_gpu": {"b": true}, "fused_ops": {"list": {"s": ["Qmlhc0FkZA=="]}}, "T": {"type": "DT_FLOAT"}, "filter_format": {"s": "SFdJTw=="}, "epsilon": {"f": 0.0}, "explicit_paddings": {"list": {}}, "_input_shapes": {"list": {"shape": [{"dim": [{"size": "-2"}, {"size": "1"}, {"size": "1"}, {"size": "168"}]}, {"dim": [{"size": "1"}, {"size": "1"}, {"size": "168"}, {"size": "672"}]}]}}, "TArgs": {"list": {"type": ["DT_FLOAT"]}}, "num_args": {"i": "1"}, "leakyrelu_alpha": {"f": 0.2}, "dilations": {"list": {"i": ["1", "1", "1", "1"]}}}}, {"name": "PartitionedCall/PartitionedCall/model/tf.math.multiply_99/Mul", "op": "Mul", "input": ["unknown_144", "PartitionedCall/PartitionedCall/model/tf.math.add_58/Add"], "attr": {"T": {"type": "DT_FLOAT"}}}, {"name": "PartitionedCall/PartitionedCall/model/tf.__operators__.add_17/AddV2", "op": "AddV2", "input": ["PartitionedCall/PartitionedCall/model/tf.math.multiply_99/Mul", "PartitionedCall/PartitionedCall/model/tf.__operators__.add_17/y"], "attr": {"T": {"type": "DT_FLOAT"}}}, {"name": "PartitionedCall/PartitionedCall/model/tf.math.minimum_17/Minimum", "op": "Minimum", "input": ["unknown_145", "PartitionedCall/PartitionedCall/model/tf.__operators__.add_17/AddV2"], "attr": {"T": {"type": "DT_FLOAT"}}}, {"name": "PartitionedCall/PartitionedCall/model/tf.math.maximum_17/Maximum", "op": "Maximum", "input": ["unknown_146", "PartitionedCall/PartitionedCall/model/tf.math.minimum_17/Minimum"], "attr": {"T": {"type": "DT_FLOAT"}}}, {"name": "PartitionedCall/PartitionedCall/model/tf.math.multiply_103/Mul", "op": "Mul", "input": ["PartitionedCall/PartitionedCall/model/tf.math.maximum_17/Maximum", "PartitionedCall/PartitionedCall/model/tf.math.multiply_98/Mul"], "attr": {"T": {"type": "DT_FLOAT"}}}, {"name": "PartitionedCall/PartitionedCall/model/tf.nn.convolution_33/convolution", "op": "Conv2D", "input": ["PartitionedCall/PartitionedCall/model/tf.math.multiply_103/Mul", "unknown_147"], "device": "/device:CPU:0", "attr": {"explicit_paddings": {"list": {}}, "_input_shapes": {"list": {"shape": [{"dim": [{"size": "-2"}, {"size": "-9"}, {"size": "-10"}, {"size": "672"}]}, {"dim": [{"size": "1"}, {"size": "1"}, {"size": "672"}, {"size": "112"}]}]}}, "T": {"type": "DT_FLOAT"}, "data_format": {"s": "TkhXQw=="}, "strides": {"list": {"i": ["1", "1", "1", "1"]}}, "dilations": {"list": {"i": ["1", "1", "1", "1"]}}, "use_cudnn_on_gpu": {"b": true}, "padding": {"s": "U0FNRQ=="}}}, {"name": "PartitionedCall/PartitionedCall/model/tf.math.add_61/ArithmeticOptimizer/AddOpsRewrite_Leaf_1_Add", "op": "AddN", "input": ["PartitionedCall/PartitionedCall/model/tf.nn.convolution_33/convolution", "PartitionedCall/PartitionedCall/model/tf.math.add_54/Add"], "attr": {"_grappler_ArithmeticOptimizer_AddOpsRewriteStage": {"b": true}, "T": {"type": "DT_FLOAT"}, "N": {"i": "2"}}}, {"name": "PartitionedCall/PartitionedCall/model/tf.math.add_61/ArithmeticOptimizer/AddOpsRewrite_Add", "op": "AddV2", "input": ["unknown_148", "PartitionedCall/PartitionedCall/model/tf.math.add_61/ArithmeticOptimizer/AddOpsRewrite_Leaf_1_Add"], "attr": {"_grappler_ArithmeticOptimizer_AddOpsRewriteStage": {"b": true}, "T": {"type": "DT_FLOAT"}}}, {"name": "PartitionedCall/PartitionedCall/model/tf.math.add_62/Add", "op": "_FusedConv2D", "input": ["PartitionedCall/PartitionedCall/model/tf.math.add_61/ArithmeticOptimizer/AddOpsRewrite_Add", "unknown_149", "unknown_150"], "device": "/device:CPU:0", "attr": {"leakyrelu_alpha": {"f": 0.2}, "strides": {"list": {"i": ["1", "1", "1", "1"]}}, "T": {"type": "DT_FLOAT"}, "num_host_args": {"i": "0"}, "dilations": {"list": {"i": ["1", "1", "1", "1"]}}, "padding": {"s": "U0FNRQ=="}, "filter_format": {"s": "SFdJTw=="}, "TArgs": {"list": {"type": ["DT_FLOAT"]}}, "fused_ops": {"list": {"s": ["Qmlhc0FkZA=="]}}, "data_format": {"s": "TkhXQw=="}, "epsilon": {"f": 0.0}, "_input_shapes": {"list": {"shape": [{"dim": [{"size": "-2"}, {"size": "-9"}, {"size": "-10"}, {"size": "112"}]}, {"dim": [{"size": "1"}, {"size": "1"}, {"size": "112"}, {"size": "672"}]}]}}, "use_cudnn_on_gpu": {"b": true}, "explicit_paddings": {"list": {}}, "num_args": {"i": "1"}}}, {"name": "PartitionedCall/PartitionedCall/model/tf.math.multiply_106/Mul", "op": "Mul", "input": ["unknown_151", "PartitionedCall/PartitionedCall/model/tf.math.add_62/Add"], "attr": {"T": {"type": "DT_FLOAT"}}}, {"name": "PartitionedCall/PartitionedCall/model/tf.__operators__.add_18/AddV2", "op": "AddV2", "input": ["PartitionedCall/PartitionedCall/model/tf.math.multiply_106/Mul", "PartitionedCall/PartitionedCall/model/tf.__operators__.add_18/y"], "attr": {"T": {"type": "DT_FLOAT"}}}, {"name": "PartitionedCall/PartitionedCall/model/tf.math.minimum_18/Minimum", "op": "Minimum", "input": ["unknown_152", "PartitionedCall/PartitionedCall/model/tf.__operators__.add_18/AddV2"], "attr": {"T": {"type": "DT_FLOAT"}}}, {"name": "PartitionedCall/PartitionedCall/model/tf.math.maximum_18/Maximum", "op": "Maximum", "input": ["unknown_153", "PartitionedCall/PartitionedCall/model/tf.math.minimum_18/Minimum"], "attr": {"T": {"type": "DT_FLOAT"}}}, {"name": "PartitionedCall/PartitionedCall/model/tf.math.multiply_110/Mul", "op": "Mul", "input": ["PartitionedCall/PartitionedCall/model/tf.math.add_62/Add", "PartitionedCall/PartitionedCall/model/tf.math.maximum_18/Maximum"], "attr": {"T": {"type": "DT_FLOAT"}}}, {"name": "PartitionedCall/PartitionedCall/model/tf.compat.v1.nn.depthwise_conv2d_12/depthwise/SpaceToBatchND", "op": "SpaceToBatchND", "input": ["PartitionedCall/PartitionedCall/model/tf.math.multiply_110/Mul", "PartitionedCall/PartitionedCall/model/tf.compat.v1.nn.depthwise_conv2d_12/depthwise/SpaceToBatchND/block_shape", "PartitionedCall/PartitionedCall/model/tf.compat.v1.nn.depthwise_conv2d_12/depthwise/SpaceToBatchND/paddings"], "attr": {"Tpaddings": {"type": "DT_INT32"}, "T": {"type": "DT_FLOAT"}, "Tblock_shape": {"type": "DT_INT32"}}}, {"name": "PartitionedCall/PartitionedCall/model/tf.compat.v1.nn.depthwise_conv2d_12/depthwise", "op": "DepthwiseConv2dNative", "input": ["PartitionedCall/PartitionedCall/model/tf.compat.v1.nn.depthwise_conv2d_12/depthwise/SpaceToBatchND", "unknown_154"], "attr": {"data_format": {"s": "TkhXQw=="}, "dilations": {"list": {"i": ["1", "1", "1", "1"]}}, "strides": {"list": {"i": ["1", "1", "1", "1"]}}, "padding": {"s": "VkFMSUQ="}, "_input_shapes": {"list": {"shape": [{"dim": [{"size": "-34"}, {"size": "-35"}, {"size": "-36"}, {"size": "672"}]}, {"dim": [{"size": "5"}, {"size": "5"}, {"size": "672"}, {"size": "1"}]}]}}, "T": {"type": "DT_FLOAT"}, "explicit_paddings": {"list": {}}}}, {"name": "PartitionedCall/PartitionedCall/model/tf.compat.v1.nn.depthwise_conv2d_12/depthwise/BatchToSpaceND", "op": "BatchToSpaceND", "input": ["PartitionedCall/PartitionedCall/model/tf.compat.v1.nn.depthwise_conv2d_12/depthwise", "PartitionedCall/PartitionedCall/model/tf.compat.v1.nn.depthwise_conv2d_12/depthwise/BatchToSpaceND/block_shape", "PartitionedCall/PartitionedCall/model/tf.compat.v1.nn.depthwise_conv2d_12/depthwise/BatchToSpaceND/crops"], "attr": {"Tcrops": {"type": "DT_INT32"}, "Tblock_shape": {"type": "DT_INT32"}, "T": {"type": "DT_FLOAT"}}}, {"name": "PartitionedCall/PartitionedCall/model/tf.math.add_63/Add", "op": "AddV2", "input": ["PartitionedCall/PartitionedCall/model/tf.compat.v1.nn.depthwise_conv2d_12/depthwise/BatchToSpaceND", "unknown_155"], "attr": {"T": {"type": "DT_FLOAT"}}}, {"name": "PartitionedCall/PartitionedCall/model/tf.math.multiply_111/Mul", "op": "Mul", "input": ["unknown_156", "PartitionedCall/PartitionedCall/model/tf.math.add_63/Add"], "attr": {"T": {"type": "DT_FLOAT"}}}, {"name": "PartitionedCall/PartitionedCall/model/tf.__operators__.add_19/AddV2", "op": "AddV2", "input": ["PartitionedCall/PartitionedCall/model/tf.math.multiply_111/Mul", "PartitionedCall/PartitionedCall/model/tf.__operators__.add_19/y"], "attr": {"T": {"type": "DT_FLOAT"}}}, {"name": "PartitionedCall/PartitionedCall/model/tf.math.minimum_19/Minimum", "op": "Minimum", "input": ["unknown_157", "PartitionedCall/PartitionedCall/model/tf.__operators__.add_19/AddV2"], "attr": {"T": {"type": "DT_FLOAT"}}}, {"name": "PartitionedCall/PartitionedCall/model/tf.math.maximum_19/Maximum", "op": "Maximum", "input": ["unknown_158", "PartitionedCall/PartitionedCall/model/tf.math.minimum_19/Minimum"], "attr": {"T": {"type": "DT_FLOAT"}}}, {"name": "PartitionedCall/PartitionedCall/model/tf.math.multiply_115/Mul", "op": "Mul", "input": ["PartitionedCall/PartitionedCall/model/tf.math.add_63/Add", "PartitionedCall/PartitionedCall/model/tf.math.maximum_19/Maximum"], "attr": {"T": {"type": "DT_FLOAT"}}}, {"name": "PartitionedCall/PartitionedCall/model/tf.math.reduce_mean_5/Mean", "op": "Mean", "input": ["PartitionedCall/PartitionedCall/model/tf.math.multiply_115/Mul", "PartitionedCall/PartitionedCall/model/tf.math.reduce_mean_5/Mean/reduction_indices"], "attr": {"keep_dims": {"b": true}, "T": {"type": "DT_FLOAT"}, "Tidx": {"type": "DT_INT32"}}}, {"name": "PartitionedCall/PartitionedCall/model/tf.nn.relu_16/Relu", "op": "_FusedConv2D", "input": ["PartitionedCall/PartitionedCall/model/tf.math.reduce_mean_5/Mean", "unknown_159", "unknown_160"], "device": "/device:CPU:0", "attr": {"data_format": {"s": "TkhXQw=="}, "TArgs": {"list": {"type": ["DT_FLOAT"]}}, "epsilon": {"f": 0.0}, "strides": {"list": {"i": ["1", "1", "1", "1"]}}, "dilations": {"list": {"i": ["1", "1", "1", "1"]}}, "fused_ops": {"list": {"s": ["Qmlhc0FkZA==", "UmVsdQ=="]}}, "_input_shapes": {"list": {"shape": [{"dim": [{"size": "-39"}, {"size": "1"}, {"size": "1"}, {"size": "672"}]}, {"dim": [{"size": "1"}, {"size": "1"}, {"size": "672"}, {"size": "168"}]}]}}, "leakyrelu_alpha": {"f": 0.2}, "filter_format": {"s": "SFdJTw=="}, "num_host_args": {"i": "0"}, "use_cudnn_on_gpu": {"b": true}, "padding": {"s": "U0FNRQ=="}, "T": {"type": "DT_FLOAT"}, "explicit_paddings": {"list": {}}, "num_args": {"i": "1"}}}, {"name": "PartitionedCall/PartitionedCall/model/tf.math.add_65/Add", "op": "_FusedConv2D", "input": ["PartitionedCall/PartitionedCall/model/tf.nn.relu_16/Relu", "unknown_161", "unknown_162"], "device": "/device:CPU:0", "attr": {"T": {"type": "DT_FLOAT"}, "filter_format": {"s": "SFdJTw=="}, "TArgs": {"list": {"type": ["DT_FLOAT"]}}, "num_args": {"i": "1"}, "_input_shapes": {"list": {"shape": [{"dim": [{"size": "-39"}, {"size": "1"}, {"size": "1"}, {"size": "168"}]}, {"dim": [{"size": "1"}, {"size": "1"}, {"size": "168"}, {"size": "672"}]}]}}, "dilations": {"list": {"i": ["1", "1", "1", "1"]}}, "data_format": {"s": "TkhXQw=="}, "use_cudnn_on_gpu": {"b": true}, "fused_ops": {"list": {"s": ["Qmlhc0FkZA=="]}}, "num_host_args": {"i": "0"}, "epsilon": {"f": 0.0}, "explicit_paddings": {"list": {}}, "strides": {"list": {"i": ["1", "1", "1", "1"]}}, "leakyrelu_alpha": {"f": 0.2}, "padding": {"s": "U0FNRQ=="}}}, {"name": "PartitionedCall/PartitionedCall/model/tf.math.multiply_116/Mul", "op": "Mul", "input": ["unknown_163", "PartitionedCall/PartitionedCall/model/tf.math.add_65/Add"], "attr": {"T": {"type": "DT_FLOAT"}}}, {"name": "PartitionedCall/PartitionedCall/model/tf.__operators__.add_20/AddV2", "op": "AddV2", "input": ["PartitionedCall/PartitionedCall/model/tf.math.multiply_116/Mul", "PartitionedCall/PartitionedCall/model/tf.__operators__.add_20/y"], "attr": {"T": {"type": "DT_FLOAT"}}}, {"name": "PartitionedCall/PartitionedCall/model/tf.math.minimum_20/Minimum", "op": "Minimum", "input": ["unknown_164", "PartitionedCall/PartitionedCall/model/tf.__operators__.add_20/AddV2"], "attr": {"T": {"type": "DT_FLOAT"}}}, {"name": "PartitionedCall/PartitionedCall/model/tf.math.maximum_20/Maximum", "op": "Maximum", "input": ["unknown_165", "PartitionedCall/PartitionedCall/model/tf.math.minimum_20/Minimum"], "attr": {"T": {"type": "DT_FLOAT"}}}, {"name": "PartitionedCall/PartitionedCall/model/tf.math.multiply_120/Mul", "op": "Mul", "input": ["PartitionedCall/PartitionedCall/model/tf.math.maximum_20/Maximum", "PartitionedCall/PartitionedCall/model/tf.math.multiply_115/Mul"], "attr": {"T": {"type": "DT_FLOAT"}}}, {"name": "PartitionedCall/PartitionedCall/model/tf.math.add_66/Add", "op": "_FusedConv2D", "input": ["PartitionedCall/PartitionedCall/model/tf.math.multiply_120/Mul", "unknown_166", "unknown_167"], "device": "/device:CPU:0", "attr": {"TArgs": {"list": {"type": ["DT_FLOAT"]}}, "explicit_paddings": {"list": {}}, "strides": {"list": {"i": ["1", "1", "1", "1"]}}, "_input_shapes": {"list": {"shape": [{"dim": [{"size": "-39"}, {"size": "-40"}, {"size": "-41"}, {"size": "672"}]}, {"dim": [{"size": "1"}, {"size": "1"}, {"size": "672"}, {"size": "160"}]}]}}, "fused_ops": {"list": {"s": ["Qmlhc0FkZA=="]}}, "filter_format": {"s": "SFdJTw=="}, "data_format": {"s": "TkhXQw=="}, "num_host_args": {"i": "0"}, "num_args": {"i": "1"}, "epsilon": {"f": 0.0}, "padding": {"s": "U0FNRQ=="}, "T": {"type": "DT_FLOAT"}, "leakyrelu_alpha": {"f": 0.2}, "use_cudnn_on_gpu": {"b": true}, "dilations": {"list": {"i": ["1", "1", "1", "1"]}}}}, {"name": "PartitionedCall/PartitionedCall/model/tf.math.add_67/Add", "op": "_FusedConv2D", "input": ["PartitionedCall/PartitionedCall/model/tf.math.add_66/Add", "unknown_168", "unknown_169"], "device": "/device:CPU:0", "attr": {"leakyrelu_alpha": {"f": 0.2}, "use_cudnn_on_gpu": {"b": true}, "filter_format": {"s": "SFdJTw=="}, "num_host_args": {"i": "0"}, "padding": {"s": "U0FNRQ=="}, "num_args": {"i": "1"}, "T": {"type": "DT_FLOAT"}, "explicit_paddings": {"list": {}}, "data_format": {"s": "TkhXQw=="}, "dilations": {"list": {"i": ["1", "1", "1", "1"]}}, "TArgs": {"list": {"type": ["DT_FLOAT"]}}, "fused_ops": {"list": {"s": ["Qmlhc0FkZA=="]}}, "strides": {"list": {"i": ["1", "1", "1", "1"]}}, "epsilon": {"f": 0.0}, "_input_shapes": {"list": {"shape": [{"dim": [{"size": "-39"}, {"size": "-40"}, {"size": "-41"}, {"size": "160"}]}, {"dim": [{"size": "1"}, {"size": "1"}, {"size": "160"}, {"size": "960"}]}]}}}}, {"name": "PartitionedCall/PartitionedCall/model/tf.math.multiply_121/Mul", "op": "Mul", "input": ["unknown_170", "PartitionedCall/PartitionedCall/model/tf.math.add_67/Add"], "attr": {"T": {"type": "DT_FLOAT"}}}, {"name": "PartitionedCall/PartitionedCall/model/tf.__operators__.add_21/AddV2", "op": "AddV2", "input": ["PartitionedCall/PartitionedCall/model/tf.math.multiply_121/Mul", "PartitionedCall/PartitionedCall/model/tf.__operators__.add_21/y"], "attr": {"T": {"type": "DT_FLOAT"}}}, {"name": "PartitionedCall/PartitionedCall/model/tf.math.minimum_21/Minimum", "op": "Minimum", "input": ["unknown_171", "PartitionedCall/PartitionedCall/model/tf.__operators__.add_21/AddV2"], "attr": {"T": {"type": "DT_FLOAT"}}}, {"name": "PartitionedCall/PartitionedCall/model/tf.math.maximum_21/Maximum", "op": "Maximum", "input": ["unknown_172", "PartitionedCall/PartitionedCall/model/tf.math.minimum_21/Minimum"], "attr": {"T": {"type": "DT_FLOAT"}}}, {"name": "PartitionedCall/PartitionedCall/model/tf.math.multiply_125/Mul", "op": "Mul", "input": ["PartitionedCall/PartitionedCall/model/tf.math.add_67/Add", "PartitionedCall/PartitionedCall/model/tf.math.maximum_21/Maximum"], "attr": {"T": {"type": "DT_FLOAT"}}}, {"name": "PartitionedCall/PartitionedCall/model/tf.compat.v1.nn.depthwise_conv2d_13/depthwise/SpaceToBatchND", "op": "SpaceToBatchND", "input": ["PartitionedCall/PartitionedCall/model/tf.math.multiply_125/Mul", "PartitionedCall/PartitionedCall/model/tf.compat.v1.nn.depthwise_conv2d_13/depthwise/SpaceToBatchND/block_shape", "PartitionedCall/PartitionedCall/model/tf.compat.v1.nn.depthwise_conv2d_13/depthwise/SpaceToBatchND/paddings"], "attr": {"Tblock_shape": {"type": "DT_INT32"}, "T": {"type": "DT_FLOAT"}, "Tpaddings": {"type": "DT_INT32"}}}, {"name": "PartitionedCall/PartitionedCall/model/tf.compat.v1.nn.depthwise_conv2d_13/depthwise", "op": "DepthwiseConv2dNative", "input": ["PartitionedCall/PartitionedCall/model/tf.compat.v1.nn.depthwise_conv2d_13/depthwise/SpaceToBatchND", "unknown_173"], "attr": {"strides": {"list": {"i": ["1", "1", "1", "1"]}}, "explicit_paddings": {"list": {}}, "padding": {"s": "VkFMSUQ="}, "T": {"type": "DT_FLOAT"}, "data_format": {"s": "TkhXQw=="}, "dilations": {"list": {"i": ["1", "1", "1", "1"]}}, "_input_shapes": {"list": {"shape": [{"dim": [{"size": "-42"}, {"size": "-43"}, {"size": "-44"}, {"size": "960"}]}, {"dim": [{"size": "5"}, {"size": "5"}, {"size": "960"}, {"size": "1"}]}]}}}}, {"name": "PartitionedCall/PartitionedCall/model/tf.compat.v1.nn.depthwise_conv2d_13/depthwise/BatchToSpaceND", "op": "BatchToSpaceND", "input": ["PartitionedCall/PartitionedCall/model/tf.compat.v1.nn.depthwise_conv2d_13/depthwise", "PartitionedCall/PartitionedCall/model/tf.compat.v1.nn.depthwise_conv2d_13/depthwise/BatchToSpaceND/block_shape", "PartitionedCall/PartitionedCall/model/tf.compat.v1.nn.depthwise_conv2d_13/depthwise/BatchToSpaceND/crops"], "attr": {"Tblock_shape": {"type": "DT_INT32"}, "T": {"type": "DT_FLOAT"}, "Tcrops": {"type": "DT_INT32"}}}, {"name": "PartitionedCall/PartitionedCall/model/tf.math.add_68/Add", "op": "AddV2", "input": ["PartitionedCall/PartitionedCall/model/tf.compat.v1.nn.depthwise_conv2d_13/depthwise/BatchToSpaceND", "unknown_174"], "attr": {"T": {"type": "DT_FLOAT"}}}, {"name": "PartitionedCall/PartitionedCall/model/tf.math.multiply_126/Mul", "op": "Mul", "input": ["unknown_175", "PartitionedCall/PartitionedCall/model/tf.math.add_68/Add"], "attr": {"T": {"type": "DT_FLOAT"}}}, {"name": "PartitionedCall/PartitionedCall/model/tf.__operators__.add_22/AddV2", "op": "AddV2", "input": ["PartitionedCall/PartitionedCall/model/tf.math.multiply_126/Mul", "PartitionedCall/PartitionedCall/model/tf.__operators__.add_22/y"], "attr": {"T": {"type": "DT_FLOAT"}}}, {"name": "PartitionedCall/PartitionedCall/model/tf.math.minimum_22/Minimum", "op": "Minimum", "input": ["unknown_176", "PartitionedCall/PartitionedCall/model/tf.__operators__.add_22/AddV2"], "attr": {"T": {"type": "DT_FLOAT"}}}, {"name": "PartitionedCall/PartitionedCall/model/tf.math.maximum_22/Maximum", "op": "Maximum", "input": ["unknown_177", "PartitionedCall/PartitionedCall/model/tf.math.minimum_22/Minimum"], "attr": {"T": {"type": "DT_FLOAT"}}}, {"name": "PartitionedCall/PartitionedCall/model/tf.math.multiply_130/Mul", "op": "Mul", "input": ["PartitionedCall/PartitionedCall/model/tf.math.add_68/Add", "PartitionedCall/PartitionedCall/model/tf.math.maximum_22/Maximum"], "attr": {"T": {"type": "DT_FLOAT"}}}, {"name": "PartitionedCall/PartitionedCall/model/tf.math.reduce_mean_6/Mean", "op": "Mean", "input": ["PartitionedCall/PartitionedCall/model/tf.math.multiply_130/Mul", "PartitionedCall/PartitionedCall/model/tf.math.reduce_mean_6/Mean/reduction_indices"], "attr": {"T": {"type": "DT_FLOAT"}, "keep_dims": {"b": true}, "Tidx": {"type": "DT_INT32"}}}, {"name": "PartitionedCall/PartitionedCall/model/tf.nn.relu_17/Relu", "op": "_FusedConv2D", "input": ["PartitionedCall/PartitionedCall/model/tf.math.reduce_mean_6/Mean", "unknown_178", "unknown_179"], "device": "/device:CPU:0", "attr": {"padding": {"s": "U0FNRQ=="}, "fused_ops": {"list": {"s": ["Qmlhc0FkZA==", "UmVsdQ=="]}}, "strides": {"list": {"i": ["1", "1", "1", "1"]}}, "dilations": {"list": {"i": ["1", "1", "1", "1"]}}, "leakyrelu_alpha": {"f": 0.2}, "num_host_args": {"i": "0"}, "filter_format": {"s": "SFdJTw=="}, "explicit_paddings": {"list": {}}, "_input_shapes": {"list": {"shape": [{"dim": [{"size": "-47"}, {"size": "1"}, {"size": "1"}, {"size": "960"}]}, {"dim": [{"size": "1"}, {"size": "1"}, {"size": "960"}, {"size": "240"}]}]}}, "TArgs": {"list": {"type": ["DT_FLOAT"]}}, "T": {"type": "DT_FLOAT"}, "num_args": {"i": "1"}, "data_format": {"s": "TkhXQw=="}, "use_cudnn_on_gpu": {"b": true}, "epsilon": {"f": 0.0}}}, {"name": "PartitionedCall/PartitionedCall/model/tf.math.add_70/Add", "op": "_FusedConv2D", "input": ["PartitionedCall/PartitionedCall/model/tf.nn.relu_17/Relu", "unknown_180", "unknown_181"], "device": "/device:CPU:0", "attr": {"data_format": {"s": "TkhXQw=="}, "strides": {"list": {"i": ["1", "1", "1", "1"]}}, "use_cudnn_on_gpu": {"b": true}, "epsilon": {"f": 0.0}, "padding": {"s": "U0FNRQ=="}, "T": {"type": "DT_FLOAT"}, "_input_shapes": {"list": {"shape": [{"dim": [{"size": "-47"}, {"size": "1"}, {"size": "1"}, {"size": "240"}]}, {"dim": [{"size": "1"}, {"size": "1"}, {"size": "240"}, {"size": "960"}]}]}}, "fused_ops": {"list": {"s": ["Qmlhc0FkZA=="]}}, "num_host_args": {"i": "0"}, "explicit_paddings": {"list": {}}, "filter_format": {"s": "SFdJTw=="}, "TArgs": {"list": {"type": ["DT_FLOAT"]}}, "dilations": {"list": {"i": ["1", "1", "1", "1"]}}, "num_args": {"i": "1"}, "leakyrelu_alpha": {"f": 0.2}}}, {"name": "PartitionedCall/PartitionedCall/model/tf.math.multiply_131/Mul", "op": "Mul", "input": ["unknown_182", "PartitionedCall/PartitionedCall/model/tf.math.add_70/Add"], "attr": {"T": {"type": "DT_FLOAT"}}}, {"name": "PartitionedCall/PartitionedCall/model/tf.__operators__.add_23/AddV2", "op": "AddV2", "input": ["PartitionedCall/PartitionedCall/model/tf.math.multiply_131/Mul", "PartitionedCall/PartitionedCall/model/tf.__operators__.add_23/y"], "attr": {"T": {"type": "DT_FLOAT"}}}, {"name": "PartitionedCall/PartitionedCall/model/tf.math.minimum_23/Minimum", "op": "Minimum", "input": ["unknown_183", "PartitionedCall/PartitionedCall/model/tf.__operators__.add_23/AddV2"], "attr": {"T": {"type": "DT_FLOAT"}}}, {"name": "PartitionedCall/PartitionedCall/model/tf.math.maximum_23/Maximum", "op": "Maximum", "input": ["unknown_184", "PartitionedCall/PartitionedCall/model/tf.math.minimum_23/Minimum"], "attr": {"T": {"type": "DT_FLOAT"}}}, {"name": "PartitionedCall/PartitionedCall/model/tf.math.multiply_135/Mul", "op": "Mul", "input": ["PartitionedCall/PartitionedCall/model/tf.math.maximum_23/Maximum", "PartitionedCall/PartitionedCall/model/tf.math.multiply_130/Mul"], "attr": {"T": {"type": "DT_FLOAT"}}}, {"name": "PartitionedCall/PartitionedCall/model/tf.math.add_71/Add", "op": "_FusedConv2D", "input": ["PartitionedCall/PartitionedCall/model/tf.math.multiply_135/Mul", "unknown_185", "unknown_186"], "device": "/device:CPU:0", "attr": {"filter_format": {"s": "SFdJTw=="}, "leakyrelu_alpha": {"f": 0.2}, "num_host_args": {"i": "0"}, "use_cudnn_on_gpu": {"b": true}, "T": {"type": "DT_FLOAT"}, "padding": {"s": "U0FNRQ=="}, "num_args": {"i": "1"}, "explicit_paddings": {"list": {}}, "data_format": {"s": "TkhXQw=="}, "dilations": {"list": {"i": ["1", "1", "1", "1"]}}, "fused_ops": {"list": {"s": ["Qmlhc0FkZA=="]}}, "TArgs": {"list": {"type": ["DT_FLOAT"]}}, "epsilon": {"f": 0.0}, "strides": {"list": {"i": ["1", "1", "1", "1"]}}, "_input_shapes": {"list": {"shape": [{"dim": [{"size": "-47"}, {"size": "-48"}, {"size": "-49"}, {"size": "960"}]}, {"dim": [{"size": "1"}, {"size": "1"}, {"size": "960"}, {"size": "160"}]}]}}}}, {"name": "PartitionedCall/PartitionedCall/model/tf.math.add_73/Add", "op": "AddV2", "input": ["PartitionedCall/PartitionedCall/model/tf.math.add_71/Add", "PartitionedCall/PartitionedCall/model/tf.math.add_66/Add"], "attr": {"T": {"type": "DT_FLOAT"}}}, {"name": "PartitionedCall/PartitionedCall/model/tf.math.add_74/Add", "op": "_FusedConv2D", "input": ["PartitionedCall/PartitionedCall/model/tf.math.add_73/Add", "unknown_187", "unknown_188"], "device": "/device:CPU:0", "attr": {"T": {"type": "DT_FLOAT"}, "explicit_paddings": {"list": {}}, "filter_format": {"s": "SFdJTw=="}, "strides": {"list": {"i": ["1", "1", "1", "1"]}}, "leakyrelu_alpha": {"f": 0.2}, "num_host_args": {"i": "0"}, "fused_ops": {"list": {"s": ["Qmlhc0FkZA=="]}}, "dilations": {"list": {"i": ["1", "1", "1", "1"]}}, "data_format": {"s": "TkhXQw=="}, "epsilon": {"f": 0.0}, "_input_shapes": {"list": {"shape": [{"dim": [{"size": "-50"}, {"size": "-51"}, {"size": "-52"}, {"size": "160"}]}, {"dim": [{"size": "1"}, {"size": "1"}, {"size": "160"}, {"size": "960"}]}]}}, "num_args": {"i": "1"}, "padding": {"s": "U0FNRQ=="}, "use_cudnn_on_gpu": {"b": true}, "TArgs": {"list": {"type": ["DT_FLOAT"]}}}}, {"name": "PartitionedCall/PartitionedCall/model/tf.math.multiply_138/Mul", "op": "Mul", "input": ["unknown_189", "PartitionedCall/PartitionedCall/model/tf.math.add_74/Add"], "attr": {"T": {"type": "DT_FLOAT"}}}, {"name": "PartitionedCall/PartitionedCall/model/tf.__operators__.add_24/AddV2", "op": "AddV2", "input": ["PartitionedCall/PartitionedCall/model/tf.math.multiply_138/Mul", "PartitionedCall/PartitionedCall/model/tf.__operators__.add_24/y"], "attr": {"T": {"type": "DT_FLOAT"}}}, {"name": "PartitionedCall/PartitionedCall/model/tf.math.minimum_24/Minimum", "op": "Minimum", "input": ["unknown_190", "PartitionedCall/PartitionedCall/model/tf.__operators__.add_24/AddV2"], "attr": {"T": {"type": "DT_FLOAT"}}}, {"name": "PartitionedCall/PartitionedCall/model/tf.math.maximum_24/Maximum", "op": "Maximum", "input": ["unknown_191", "PartitionedCall/PartitionedCall/model/tf.math.minimum_24/Minimum"], "attr": {"T": {"type": "DT_FLOAT"}}}, {"name": "PartitionedCall/PartitionedCall/model/tf.math.multiply_142/Mul", "op": "Mul", "input": ["PartitionedCall/PartitionedCall/model/tf.math.add_74/Add", "PartitionedCall/PartitionedCall/model/tf.math.maximum_24/Maximum"], "attr": {"T": {"type": "DT_FLOAT"}}}, {"name": "PartitionedCall/PartitionedCall/model/tf.compat.v1.nn.depthwise_conv2d_14/depthwise/SpaceToBatchND", "op": "SpaceToBatchND", "input": ["PartitionedCall/PartitionedCall/model/tf.math.multiply_142/Mul", "PartitionedCall/PartitionedCall/model/tf.compat.v1.nn.depthwise_conv2d_14/depthwise/SpaceToBatchND/block_shape", "PartitionedCall/PartitionedCall/model/tf.compat.v1.nn.depthwise_conv2d_14/depthwise/SpaceToBatchND/paddings"], "attr": {"Tpaddings": {"type": "DT_INT32"}, "Tblock_shape": {"type": "DT_INT32"}, "T": {"type": "DT_FLOAT"}}}, {"name": "PartitionedCall/PartitionedCall/model/tf.compat.v1.nn.depthwise_conv2d_14/depthwise", "op": "DepthwiseConv2dNative", "input": ["PartitionedCall/PartitionedCall/model/tf.compat.v1.nn.depthwise_conv2d_14/depthwise/SpaceToBatchND", "unknown_192"], "attr": {"data_format": {"s": "TkhXQw=="}, "strides": {"list": {"i": ["1", "1", "1", "1"]}}, "dilations": {"list": {"i": ["1", "1", "1", "1"]}}, "_input_shapes": {"list": {"shape": [{"dim": [{"size": "-53"}, {"size": "-54"}, {"size": "-55"}, {"size": "960"}]}, {"dim": [{"size": "5"}, {"size": "5"}, {"size": "960"}, {"size": "1"}]}]}}, "T": {"type": "DT_FLOAT"}, "explicit_paddings": {"list": {}}, "padding": {"s": "VkFMSUQ="}}}, {"name": "PartitionedCall/PartitionedCall/model/tf.compat.v1.nn.depthwise_conv2d_14/depthwise/BatchToSpaceND", "op": "BatchToSpaceND", "input": ["PartitionedCall/PartitionedCall/model/tf.compat.v1.nn.depthwise_conv2d_14/depthwise", "PartitionedCall/PartitionedCall/model/tf.compat.v1.nn.depthwise_conv2d_14/depthwise/BatchToSpaceND/block_shape", "PartitionedCall/PartitionedCall/model/tf.compat.v1.nn.depthwise_conv2d_14/depthwise/BatchToSpaceND/crops"], "attr": {"Tcrops": {"type": "DT_INT32"}, "Tblock_shape": {"type": "DT_INT32"}, "T": {"type": "DT_FLOAT"}}}, {"name": "PartitionedCall/PartitionedCall/model/tf.math.add_75/Add", "op": "AddV2", "input": ["PartitionedCall/PartitionedCall/model/tf.compat.v1.nn.depthwise_conv2d_14/depthwise/BatchToSpaceND", "unknown_193"], "attr": {"T": {"type": "DT_FLOAT"}}}, {"name": "PartitionedCall/PartitionedCall/model/tf.math.multiply_143/Mul", "op": "Mul", "input": ["unknown_194", "PartitionedCall/PartitionedCall/model/tf.math.add_75/Add"], "attr": {"T": {"type": "DT_FLOAT"}}}, {"name": "PartitionedCall/PartitionedCall/model/tf.__operators__.add_25/AddV2", "op": "AddV2", "input": ["PartitionedCall/PartitionedCall/model/tf.math.multiply_143/Mul", "PartitionedCall/PartitionedCall/model/tf.__operators__.add_25/y"], "attr": {"T": {"type": "DT_FLOAT"}}}, {"name": "PartitionedCall/PartitionedCall/model/tf.math.minimum_25/Minimum", "op": "Minimum", "input": ["unknown_195", "PartitionedCall/PartitionedCall/model/tf.__operators__.add_25/AddV2"], "attr": {"T": {"type": "DT_FLOAT"}}}, {"name": "PartitionedCall/PartitionedCall/model/tf.math.maximum_25/Maximum", "op": "Maximum", "input": ["unknown_196", "PartitionedCall/PartitionedCall/model/tf.math.minimum_25/Minimum"], "attr": {"T": {"type": "DT_FLOAT"}}}, {"name": "PartitionedCall/PartitionedCall/model/tf.math.multiply_147/Mul", "op": "Mul", "input": ["PartitionedCall/PartitionedCall/model/tf.math.add_75/Add", "PartitionedCall/PartitionedCall/model/tf.math.maximum_25/Maximum"], "attr": {"T": {"type": "DT_FLOAT"}}}, {"name": "PartitionedCall/PartitionedCall/model/tf.math.reduce_mean_7/Mean", "op": "Mean", "input": ["PartitionedCall/PartitionedCall/model/tf.math.multiply_147/Mul", "PartitionedCall/PartitionedCall/model/tf.math.reduce_mean_7/Mean/reduction_indices"], "attr": {"keep_dims": {"b": true}, "Tidx": {"type": "DT_INT32"}, "T": {"type": "DT_FLOAT"}}}, {"name": "PartitionedCall/PartitionedCall/model/tf.nn.relu_18/Relu", "op": "_FusedConv2D", "input": ["PartitionedCall/PartitionedCall/model/tf.math.reduce_mean_7/Mean", "unknown_197", "unknown_198"], "device": "/device:CPU:0", "attr": {"num_args": {"i": "1"}, "data_format": {"s": "TkhXQw=="}, "padding": {"s": "U0FNRQ=="}, "num_host_args": {"i": "0"}, "epsilon": {"f": 0.0}, "explicit_paddings": {"list": {}}, "strides": {"list": {"i": ["1", "1", "1", "1"]}}, "_input_shapes": {"list": {"shape": [{"dim": [{"size": "-58"}, {"size": "1"}, {"size": "1"}, {"size": "960"}]}, {"dim": [{"size": "1"}, {"size": "1"}, {"size": "960"}, {"size": "240"}]}]}}, "dilations": {"list": {"i": ["1", "1", "1", "1"]}}, "fused_ops": {"list": {"s": ["Qmlhc0FkZA==", "UmVsdQ=="]}}, "leakyrelu_alpha": {"f": 0.2}, "T": {"type": "DT_FLOAT"}, "TArgs": {"list": {"type": ["DT_FLOAT"]}}, "use_cudnn_on_gpu": {"b": true}, "filter_format": {"s": "SFdJTw=="}}}, {"name": "PartitionedCall/PartitionedCall/model/tf.math.add_77/Add", "op": "_FusedConv2D", "input": ["PartitionedCall/PartitionedCall/model/tf.nn.relu_18/Relu", "unknown_199", "unknown_200"], "device": "/device:CPU:0", "attr": {"num_host_args": {"i": "0"}, "dilations": {"list": {"i": ["1", "1", "1", "1"]}}, "strides": {"list": {"i": ["1", "1", "1", "1"]}}, "T": {"type": "DT_FLOAT"}, "filter_format": {"s": "SFdJTw=="}, "padding": {"s": "U0FNRQ=="}, "fused_ops": {"list": {"s": ["Qmlhc0FkZA=="]}}, "data_format": {"s": "TkhXQw=="}, "epsilon": {"f": 0.0}, "use_cudnn_on_gpu": {"b": true}, "_input_shapes": {"list": {"shape": [{"dim": [{"size": "-58"}, {"size": "1"}, {"size": "1"}, {"size": "240"}]}, {"dim": [{"size": "1"}, {"size": "1"}, {"size": "240"}, {"size": "960"}]}]}}, "TArgs": {"list": {"type": ["DT_FLOAT"]}}, "explicit_paddings": {"list": {}}, "num_args": {"i": "1"}, "leakyrelu_alpha": {"f": 0.2}}}, {"name": "PartitionedCall/PartitionedCall/model/tf.math.multiply_148/Mul", "op": "Mul", "input": ["unknown_201", "PartitionedCall/PartitionedCall/model/tf.math.add_77/Add"], "attr": {"T": {"type": "DT_FLOAT"}}}, {"name": "PartitionedCall/PartitionedCall/model/tf.__operators__.add_26/AddV2", "op": "AddV2", "input": ["PartitionedCall/PartitionedCall/model/tf.math.multiply_148/Mul", "PartitionedCall/PartitionedCall/model/tf.__operators__.add_26/y"], "attr": {"T": {"type": "DT_FLOAT"}}}, {"name": "PartitionedCall/PartitionedCall/model/tf.math.minimum_26/Minimum", "op": "Minimum", "input": ["unknown_202", "PartitionedCall/PartitionedCall/model/tf.__operators__.add_26/AddV2"], "attr": {"T": {"type": "DT_FLOAT"}}}, {"name": "PartitionedCall/PartitionedCall/model/tf.math.maximum_26/Maximum", "op": "Maximum", "input": ["unknown_203", "PartitionedCall/PartitionedCall/model/tf.math.minimum_26/Minimum"], "attr": {"T": {"type": "DT_FLOAT"}}}, {"name": "PartitionedCall/PartitionedCall/model/tf.math.multiply_152/Mul", "op": "Mul", "input": ["PartitionedCall/PartitionedCall/model/tf.math.maximum_26/Maximum", "PartitionedCall/PartitionedCall/model/tf.math.multiply_147/Mul"], "attr": {"T": {"type": "DT_FLOAT"}}}, {"name": "PartitionedCall/PartitionedCall/model/tf.math.add_78/Add", "op": "_FusedConv2D", "input": ["PartitionedCall/PartitionedCall/model/tf.math.multiply_152/Mul", "unknown_204", "unknown_205"], "device": "/device:CPU:0", "attr": {"filter_format": {"s": "SFdJTw=="}, "num_host_args": {"i": "0"}, "T": {"type": "DT_FLOAT"}, "leakyrelu_alpha": {"f": 0.2}, "padding": {"s": "U0FNRQ=="}, "use_cudnn_on_gpu": {"b": true}, "num_args": {"i": "1"}, "explicit_paddings": {"list": {}}, "fused_ops": {"list": {"s": ["Qmlhc0FkZA=="]}}, "TArgs": {"list": {"type": ["DT_FLOAT"]}}, "data_format": {"s": "TkhXQw=="}, "dilations": {"list": {"i": ["1", "1", "1", "1"]}}, "epsilon": {"f": 0.0}, "strides": {"list": {"i": ["1", "1", "1", "1"]}}, "_input_shapes": {"list": {"shape": [{"dim": [{"size": "-58"}, {"size": "-59"}, {"size": "-60"}, {"size": "960"}]}, {"dim": [{"size": "1"}, {"size": "1"}, {"size": "960"}, {"size": "160"}]}]}}}}, {"name": "PartitionedCall/PartitionedCall/model/tf.math.add_80/Add", "op": "AddV2", "input": ["PartitionedCall/PartitionedCall/model/tf.math.add_78/Add", "PartitionedCall/PartitionedCall/model/tf.math.add_73/Add"], "attr": {"T": {"type": "DT_FLOAT"}}}, {"name": "PartitionedCall/PartitionedCall/model/tf.math.add_81/Add", "op": "_FusedConv2D", "input": ["PartitionedCall/PartitionedCall/model/tf.math.add_80/Add", "unknown_206", "unknown_207"], "device": "/device:CPU:0", "attr": {"padding": {"s": "U0FNRQ=="}, "epsilon": {"f": 0.0}, "_input_shapes": {"list": {"shape": [{"dim": [{"size": "-11"}, {"size": "24"}, {"size": "24"}, {"size": "160"}]}, {"dim": [{"size": "1"}, {"size": "1"}, {"size": "160"}, {"size": "960"}]}]}}, "num_args": {"i": "1"}, "TArgs": {"list": {"type": ["DT_FLOAT"]}}, "use_cudnn_on_gpu": {"b": true}, "T": {"type": "DT_FLOAT"}, "strides": {"list": {"i": ["1", "1", "1", "1"]}}, "explicit_paddings": {"list": {}}, "filter_format": {"s": "SFdJTw=="}, "num_host_args": {"i": "0"}, "leakyrelu_alpha": {"f": 0.2}, "fused_ops": {"list": {"s": ["Qmlhc0FkZA=="]}}, "dilations": {"list": {"i": ["1", "1", "1", "1"]}}, "data_format": {"s": "TkhXQw=="}}}, {"name": "PartitionedCall/PartitionedCall/model/tf.math.multiply_155/Mul", "op": "Mul", "input": ["unknown_208", "PartitionedCall/PartitionedCall/model/tf.math.add_81/Add"], "attr": {"T": {"type": "DT_FLOAT"}}}, {"name": "PartitionedCall/PartitionedCall/model/tf.__operators__.add_27/AddV2", "op": "AddV2", "input": ["PartitionedCall/PartitionedCall/model/tf.math.multiply_155/Mul", "PartitionedCall/PartitionedCall/model/tf.__operators__.add_27/y"], "attr": {"T": {"type": "DT_FLOAT"}}}, {"name": "PartitionedCall/PartitionedCall/model/tf.math.minimum_27/Minimum", "op": "Minimum", "input": ["unknown_209", "PartitionedCall/PartitionedCall/model/tf.__operators__.add_27/AddV2"], "attr": {"T": {"type": "DT_FLOAT"}}}, {"name": "PartitionedCall/PartitionedCall/model/tf.math.maximum_27/Maximum", "op": "Maximum", "input": ["unknown_210", "PartitionedCall/PartitionedCall/model/tf.math.minimum_27/Minimum"], "attr": {"T": {"type": "DT_FLOAT"}}}, {"name": "PartitionedCall/PartitionedCall/model/tf.math.multiply_159/Mul", "op": "Mul", "input": ["PartitionedCall/PartitionedCall/model/tf.math.add_81/Add", "PartitionedCall/PartitionedCall/model/tf.math.maximum_27/Maximum"], "attr": {"T": {"type": "DT_FLOAT"}}}, {"name": "PartitionedCall/PartitionedCall/model/tf.nn.relu_19/Relu", "op": "_FusedConv2D", "input": ["PartitionedCall/PartitionedCall/model/tf.math.multiply_159/Mul", "unknown_216", "unknown_220"], "device": "/device:CPU:0", "attr": {"use_cudnn_on_gpu": {"b": true}, "leakyrelu_alpha": {"f": 0.2}, "epsilon": {"f": 0.0}, "_input_shapes": {"list": {"shape": [{"dim": [{"size": "-11"}, {"size": "24"}, {"size": "24"}, {"size": "960"}]}, {"dim": [{"size": "1"}, {"size": "1"}, {"size": "960"}, {"size": "256"}]}]}}, "dilations": {"list": {"i": ["1", "1", "1", "1"]}}, "data_format": {"s": "TkhXQw=="}, "fused_ops": {"list": {"s": ["Qmlhc0FkZA==", "UmVsdQ=="]}}, "strides": {"list": {"i": ["1", "1", "1", "1"]}}, "explicit_paddings": {"list": {}}, "TArgs": {"list": {"type": ["DT_FLOAT"]}}, "T": {"type": "DT_FLOAT"}, "num_args": {"i": "1"}, "filter_format": {"s": "SFdJTw=="}, "padding": {"s": "U0FNRQ=="}, "num_host_args": {"i": "0"}}}, {"name": "PartitionedCall/PartitionedCall/model/tf.space_to_batch_nd/SpaceToBatchND", "op": "SpaceToBatchND", "input": ["PartitionedCall/PartitionedCall/model/tf.math.multiply_159/Mul", "PartitionedCall/PartitionedCall/model/tf.space_to_batch_nd/SpaceToBatchND/block_shape", "PartitionedCall/PartitionedCall/model/tf.space_to_batch_nd/SpaceToBatchND/paddings"], "attr": {"T": {"type": "DT_FLOAT"}, "Tpaddings": {"type": "DT_INT32"}, "Tblock_shape": {"type": "DT_INT32"}}}, {"name": "PartitionedCall/PartitionedCall/model/tf.space_to_batch_nd_1/SpaceToBatchND", "op": "SpaceToBatchND", "input": ["PartitionedCall/PartitionedCall/model/tf.math.multiply_159/Mul", "PartitionedCall/PartitionedCall/model/tf.space_to_batch_nd_1/SpaceToBatchND/block_shape", "PartitionedCall/PartitionedCall/model/tf.space_to_batch_nd_1/SpaceToBatchND/paddings"], "attr": {"T": {"type": "DT_FLOAT"}, "Tpaddings": {"type": "DT_INT32"}, "Tblock_shape": {"type": "DT_INT32"}}}, {"name": "PartitionedCall/PartitionedCall/model/tf.space_to_batch_nd_2/SpaceToBatchND", "op": "SpaceToBatchND", "input": ["PartitionedCall/PartitionedCall/model/tf.math.multiply_159/Mul", "PartitionedCall/PartitionedCall/model/tf.space_to_batch_nd_2/SpaceToBatchND/block_shape", "PartitionedCall/PartitionedCall/model/tf.space_to_batch_nd_2/SpaceToBatchND/paddings"], "attr": {"T": {"type": "DT_FLOAT"}, "Tblock_shape": {"type": "DT_INT32"}, "Tpaddings": {"type": "DT_INT32"}}}, {"name": "PartitionedCall/PartitionedCall/model/tf.math.reduce_mean_8/Mean", "op": "Mean", "input": ["PartitionedCall/PartitionedCall/model/tf.math.multiply_159/Mul", "PartitionedCall/PartitionedCall/model/tf.math.reduce_mean_8/Mean/reduction_indices"], "attr": {"T": {"type": "DT_FLOAT"}, "Tidx": {"type": "DT_INT32"}, "keep_dims": {"b": true}}}, {"name": "PartitionedCall/PartitionedCall/model/tf.compat.v1.nn.conv2d/Conv2D", "op": "Conv2D", "input": ["PartitionedCall/PartitionedCall/model/tf.space_to_batch_nd/SpaceToBatchND", "unknown_214"], "device": "/device:CPU:0", "attr": {"T": {"type": "DT_FLOAT"}, "explicit_paddings": {"list": {}}, "strides": {"list": {"i": ["1", "1", "1", "1"]}}, "padding": {"s": "VkFMSUQ="}, "dilations": {"list": {"i": ["1", "1", "1", "1"]}}, "_input_shapes": {"list": {"shape": [{"dim": [{"size": "-61"}, {"size": "-62"}, {"size": "-63"}, {"size": "960"}]}, {"dim": [{"size": "3"}, {"size": "3"}, {"size": "960"}, {"size": "256"}]}]}}, "use_cudnn_on_gpu": {"b": true}, "data_format": {"s": "TkhXQw=="}}}, {"name": "PartitionedCall/PartitionedCall/model/tf.compat.v1.nn.conv2d_1/Conv2D", "op": "Conv2D", "input": ["PartitionedCall/PartitionedCall/model/tf.space_to_batch_nd_1/SpaceToBatchND", "unknown_213"], "device": "/device:CPU:0", "attr": {"T": {"type": "DT_FLOAT"}, "_input_shapes": {"list": {"shape": [{"dim": [{"size": "-66"}, {"size": "-67"}, {"size": "-68"}, {"size": "960"}]}, {"dim": [{"size": "3"}, {"size": "3"}, {"size": "960"}, {"size": "256"}]}]}}, "data_format": {"s": "TkhXQw=="}, "strides": {"list": {"i": ["1", "1", "1", "1"]}}, "padding": {"s": "VkFMSUQ="}, "use_cudnn_on_gpu": {"b": true}, "explicit_paddings": {"list": {}}, "dilations": {"list": {"i": ["1", "1", "1", "1"]}}}}, {"name": "PartitionedCall/PartitionedCall/model/tf.compat.v1.nn.conv2d_2/Conv2D", "op": "Conv2D", "input": ["PartitionedCall/PartitionedCall/model/tf.space_to_batch_nd_2/SpaceToBatchND", "unknown_212"], "device": "/device:CPU:0", "attr": {"padding": {"s": "VkFMSUQ="}, "_input_shapes": {"list": {"shape": [{"dim": [{"size": "-71"}, {"size": "-72"}, {"size": "-73"}, {"size": "960"}]}, {"dim": [{"size": "3"}, {"size": "3"}, {"size": "960"}, {"size": "256"}]}]}}, "strides": {"list": {"i": ["1", "1", "1", "1"]}}, "dilations": {"list": {"i": ["1", "1", "1", "1"]}}, "T": {"type": "DT_FLOAT"}, "data_format": {"s": "TkhXQw=="}, "explicit_paddings": {"list": {}}, "use_cudnn_on_gpu": {"b": true}}}, {"name": "PartitionedCall/PartitionedCall/model/tf.nn.relu_23/Relu", "op": "_FusedConv2D", "input": ["PartitionedCall/PartitionedCall/model/tf.math.reduce_mean_8/Mean", "unknown_211", "unknown_215"], "device": "/device:CPU:0", "attr": {"TArgs": {"list": {"type": ["DT_FLOAT"]}}, "use_cudnn_on_gpu": {"b": true}, "leakyrelu_alpha": {"f": 0.2}, "dilations": {"list": {"i": ["1", "1", "1", "1"]}}, "padding": {"s": "U0FNRQ=="}, "strides": {"list": {"i": ["1", "1", "1", "1"]}}, "num_args": {"i": "1"}, "filter_format": {"s": "SFdJTw=="}, "explicit_paddings": {"list": {}}, "T": {"type": "DT_FLOAT"}, "epsilon": {"f": 0.0}, "_input_shapes": {"list": {"shape": [{"dim": [{"size": "-11"}, {"size": "1"}, {"size": "1"}, {"size": "960"}]}, {"dim": [{"size": "1"}, {"size": "1"}, {"size": "960"}, {"size": "256"}]}]}}, "num_host_args": {"i": "0"}, "data_format": {"s": "TkhXQw=="}, "fused_ops": {"list": {"s": ["Qmlhc0FkZA==", "UmVsdQ=="]}}}}, {"name": "PartitionedCall/PartitionedCall/model/tf.compat.v1.batch_to_space_nd/BatchToSpaceND", "op": "BatchToSpaceND", "input": ["PartitionedCall/PartitionedCall/model/tf.compat.v1.nn.conv2d/Conv2D", "PartitionedCall/PartitionedCall/model/tf.compat.v1.batch_to_space_nd/BatchToSpaceND/block_shape", "PartitionedCall/PartitionedCall/model/tf.compat.v1.batch_to_space_nd/BatchToSpaceND/crops"], "attr": {"Tblock_shape": {"type": "DT_INT32"}, "T": {"type": "DT_FLOAT"}, "Tcrops": {"type": "DT_INT32"}}}, {"name": "PartitionedCall/PartitionedCall/model/tf.compat.v1.batch_to_space_nd_1/BatchToSpaceND", "op": "BatchToSpaceND", "input": ["PartitionedCall/PartitionedCall/model/tf.compat.v1.nn.conv2d_1/Conv2D", "PartitionedCall/PartitionedCall/model/tf.compat.v1.batch_to_space_nd_1/BatchToSpaceND/block_shape", "PartitionedCall/PartitionedCall/model/tf.compat.v1.batch_to_space_nd_1/BatchToSpaceND/crops"], "attr": {"Tblock_shape": {"type": "DT_INT32"}, "T": {"type": "DT_FLOAT"}, "Tcrops": {"type": "DT_INT32"}}}, {"name": "PartitionedCall/PartitionedCall/model/tf.compat.v1.batch_to_space_nd_2/BatchToSpaceND", "op": "BatchToSpaceND", "input": ["PartitionedCall/PartitionedCall/model/tf.compat.v1.nn.conv2d_2/Conv2D", "PartitionedCall/PartitionedCall/model/tf.compat.v1.batch_to_space_nd_2/BatchToSpaceND/block_shape", "PartitionedCall/PartitionedCall/model/tf.compat.v1.batch_to_space_nd_2/BatchToSpaceND/crops"], "attr": {"Tblock_shape": {"type": "DT_INT32"}, "T": {"type": "DT_FLOAT"}, "Tcrops": {"type": "DT_INT32"}}}, {"name": "PartitionedCall/PartitionedCall/model/tf.compat.v1.image.resize_bilinear/ResizeBilinear", "op": "ResizeBilinear", "input": ["PartitionedCall/PartitionedCall/model/tf.nn.relu_23/Relu", "unknown_221"], "attr": {"align_corners": {"b": false}, "T": {"type": "DT_FLOAT"}, "half_pixel_centers": {"b": true}}}, {"name": "PartitionedCall/PartitionedCall/model/tf.math.add_83/Add", "op": "AddV2", "input": ["PartitionedCall/PartitionedCall/model/tf.compat.v1.batch_to_space_nd/BatchToSpaceND", "unknown_219"], "attr": {"T": {"type": "DT_FLOAT"}}}, {"name": "PartitionedCall/PartitionedCall/model/tf.math.add_84/Add", "op": "AddV2", "input": ["PartitionedCall/PartitionedCall/model/tf.compat.v1.batch_to_space_nd_1/BatchToSpaceND", "unknown_218"], "attr": {"T": {"type": "DT_FLOAT"}}}, {"name": "PartitionedCall/PartitionedCall/model/tf.math.add_85/Add", "op": "AddV2", "input": ["PartitionedCall/PartitionedCall/model/tf.compat.v1.batch_to_space_nd_2/BatchToSpaceND", "unknown_217"], "attr": {"T": {"type": "DT_FLOAT"}}}, {"name": "PartitionedCall/PartitionedCall/model/tf.nn.relu_20/Relu", "op": "Relu", "input": ["PartitionedCall/PartitionedCall/model/tf.math.add_83/Add"], "attr": {"T": {"type": "DT_FLOAT"}}}, {"name": "PartitionedCall/PartitionedCall/model/tf.nn.relu_21/Relu", "op": "Relu", "input": ["PartitionedCall/PartitionedCall/model/tf.math.add_84/Add"], "attr": {"T": {"type": "DT_FLOAT"}}}, {"name": "PartitionedCall/PartitionedCall/model/tf.nn.relu_22/Relu", "op": "Relu", "input": ["PartitionedCall/PartitionedCall/model/tf.math.add_85/Add"], "attr": {"T": {"type": "DT_FLOAT"}}}, {"name": "PartitionedCall/PartitionedCall/model/tf.concat/concat", "op": "ConcatV2", "input": ["PartitionedCall/PartitionedCall/model/tf.nn.relu_19/Relu", "PartitionedCall/PartitionedCall/model/tf.nn.relu_20/Relu", "PartitionedCall/PartitionedCall/model/tf.nn.relu_21/Relu", "PartitionedCall/PartitionedCall/model/tf.nn.relu_22/Relu", "PartitionedCall/PartitionedCall/model/tf.compat.v1.image.resize_bilinear/ResizeBilinear", "PartitionedCall/PartitionedCall/model/tf.concat/concat/axis"], "attr": {"N": {"i": "5"}, "T": {"type": "DT_FLOAT"}, "Tidx": {"type": "DT_INT32"}}}, {"name": "PartitionedCall/PartitionedCall/model/tf.nn.relu_24/Relu", "op": "_FusedConv2D", "input": ["PartitionedCall/PartitionedCall/model/tf.concat/concat", "unknown_222", "unknown_223"], "device": "/device:CPU:0", "attr": {"dilations": {"list": {"i": ["1", "1", "1", "1"]}}, "_input_shapes": {"list": {"shape": [{"dim": [{"size": "-11"}, {"size": "24"}, {"size": "24"}, {"size": "1280"}]}, {"dim": [{"size": "1"}, {"size": "1"}, {"size": "1280"}, {"size": "256"}]}]}}, "use_cudnn_on_gpu": {"b": true}, "padding": {"s": "U0FNRQ=="}, "leakyrelu_alpha": {"f": 0.2}, "strides": {"list": {"i": ["1", "1", "1", "1"]}}, "epsilon": {"f": 0.0}, "num_args": {"i": "1"}, "data_format": {"s": "TkhXQw=="}, "explicit_paddings": {"list": {}}, "filter_format": {"s": "SFdJTw=="}, "num_host_args": {"i": "0"}, "fused_ops": {"list": {"s": ["Qmlhc0FkZA==", "UmVsdQ=="]}}, "TArgs": {"list": {"type": ["DT_FLOAT"]}}, "T": {"type": "DT_FLOAT"}}}, {"name": "PartitionedCall/PartitionedCall/model/tf.nn.relu_25/Relu", "op": "_FusedConv2D", "input": ["PartitionedCall/PartitionedCall/model/tf.nn.relu_24/Relu", "unknown_224", "unknown_225"], "device": "/device:CPU:0", "attr": {"_input_shapes": {"list": {"shape": [{"dim": [{"size": "-11"}, {"size": "24"}, {"size": "24"}, {"size": "256"}]}, {"dim": [{"size": "3"}, {"size": "3"}, {"size": "256"}, {"size": "256"}]}]}}, "num_host_args": {"i": "0"}, "padding": {"s": "U0FNRQ=="}, "data_format": {"s": "TkhXQw=="}, "fused_ops": {"list": {"s": ["Qmlhc0FkZA==", "UmVsdQ=="]}}, "strides": {"list": {"i": ["1", "1", "1", "1"]}}, "use_cudnn_on_gpu": {"b": true}, "leakyrelu_alpha": {"f": 0.2}, "dilations": {"list": {"i": ["1", "1", "1", "1"]}}, "T": {"type": "DT_FLOAT"}, "num_args": {"i": "1"}, "filter_format": {"s": "SFdJTw=="}, "explicit_paddings": {"list": {}}, "TArgs": {"list": {"type": ["DT_FLOAT"]}}, "epsilon": {"f": 0.0}}}, {"name": "PartitionedCall/PartitionedCall/model/tf.math.add_89/Add", "op": "_FusedConv2D", "input": ["PartitionedCall/PartitionedCall/model/tf.nn.relu_25/Relu", "unknown_226", "unknown_227"], "device": "/device:CPU:0", "attr": {"strides": {"list": {"i": ["1", "1", "1", "1"]}}, "epsilon": {"f": 0.0}, "num_args": {"i": "1"}, "explicit_paddings": {"list": {}}, "filter_format": {"s": "SFdJTw=="}, "num_host_args": {"i": "0"}, "data_format": {"s": "TkhXQw=="}, "TArgs": {"list": {"type": ["DT_FLOAT"]}}, "fused_ops": {"list": {"s": ["Qmlhc0FkZA=="]}}, "T": {"type": "DT_FLOAT"}, "padding": {"s": "U0FNRQ=="}, "_input_shapes": {"list": {"shape": [{"dim": [{"size": "-11"}, {"size": "24"}, {"size": "24"}, {"size": "256"}]}, {"dim": [{"size": "1"}, {"size": "1"}, {"size": "256"}, {"size": "2"}]}]}}, "dilations": {"list": {"i": ["1", "1", "1", "1"]}}, "use_cudnn_on_gpu": {"b": true}, "leakyrelu_alpha": {"f": 0.2}}}, {"name": "PartitionedCall/PartitionedCall/model/output/ResizeBilinear", "op": "ResizeBilinear", "input": ["PartitionedCall/PartitionedCall/model/tf.math.add_89/Add", "unknown_228"], "attr": {"align_corners": {"b": false}, "T": {"type": "DT_FLOAT"}, "half_pixel_centers": {"b": true}}}, {"name": "Identity", "op": "Identity", "input": ["PartitionedCall/PartitionedCall/model/output/ResizeBilinear"], "attr": {"T": {"type": "DT_FLOAT"}}}], "library": {}, "versions": {"producer": 1645}}, "weightsManifest": [{"paths": ["group1-shard1of11.bin", "group1-shard2of11.bin", "group1-shard3of11.bin", "group1-shard4of11.bin", "group1-shard5of11.bin", "group1-shard6of11.bin", "group1-shard7of11.bin", "group1-shard8of11.bin", "group1-shard9of11.bin", "group1-shard10of11.bin", "group1-shard11of11.bin"], "weights": [{"name": "unknown_216", "shape": [1, 1, 960, 256], "dtype": "float32"}, {"name": "unknown_220", "shape": [256], "dtype": "float32"}, {"name": "PartitionedCall/PartitionedCall/model/tf.space_to_batch_nd/SpaceToBatchND/block_shape", "shape": [2], "dtype": "int32"}, {"name": "PartitionedCall/PartitionedCall/model/tf.space_to_batch_nd/SpaceToBatchND/paddings", "shape": [2, 2], "dtype": "int32"}, {"name": "unknown_214", "shape": [3, 3, 960, 256], "dtype": "float32"}, {"name": "PartitionedCall/PartitionedCall/model/tf.compat.v1.batch_to_space_nd/BatchToSpaceND/block_shape", "shape": [2], "dtype": "int32"}, {"name": "PartitionedCall/PartitionedCall/model/tf.compat.v1.batch_to_space_nd/BatchToSpaceND/crops", "shape": [2, 2], "dtype": "int32"}, {"name": "unknown_219", "shape": [256], "dtype": "float32"}, {"name": "PartitionedCall/PartitionedCall/model/tf.space_to_batch_nd_1/SpaceToBatchND/block_shape", "shape": [2], "dtype": "int32"}, {"name": "PartitionedCall/PartitionedCall/model/tf.space_to_batch_nd_1/SpaceToBatchND/paddings", "shape": [2, 2], "dtype": "int32"}, {"name": "unknown_213", "shape": [3, 3, 960, 256], "dtype": "float32"}, {"name": "PartitionedCall/PartitionedCall/model/tf.compat.v1.batch_to_space_nd_1/BatchToSpaceND/block_shape", "shape": [2], "dtype": "int32"}, {"name": "PartitionedCall/PartitionedCall/model/tf.compat.v1.batch_to_space_nd_1/BatchToSpaceND/crops", "shape": [2, 2], "dtype": "int32"}, {"name": "unknown_218", "shape": [256], "dtype": "float32"}, {"name": "PartitionedCall/PartitionedCall/model/tf.space_to_batch_nd_2/SpaceToBatchND/block_shape", "shape": [2], "dtype": "int32"}, {"name": "PartitionedCall/PartitionedCall/model/tf.space_to_batch_nd_2/SpaceToBatchND/paddings", "shape": [2, 2], "dtype": "int32"}, {"name": "unknown_212", "shape": [3, 3, 960, 256], "dtype": "float32"}, {"name": "PartitionedCall/PartitionedCall/model/tf.compat.v1.batch_to_space_nd_2/BatchToSpaceND/block_shape", "shape": [2], "dtype": "int32"}, {"name": "PartitionedCall/PartitionedCall/model/tf.compat.v1.batch_to_space_nd_2/BatchToSpaceND/crops", "shape": [2, 2], "dtype": "int32"}, {"name": "unknown_217", "shape": [256], "dtype": "float32"}, {"name": "unknown_210", "shape": [], "dtype": "float32"}, {"name": "unknown_209", "shape": [], "dtype": "float32"}, {"name": "unknown_208", "shape": [], "dtype": "float32"}, {"name": "unknown_203", "shape": [], "dtype": "float32"}, {"name": "unknown_202", "shape": [], "dtype": "float32"}, {"name": "unknown_201", "shape": [], "dtype": "float32"}, {"name": "PartitionedCall/PartitionedCall/model/tf.math.reduce_mean_7/Mean/reduction_indices", "shape": [2], "dtype": "int32"}, {"name": "unknown_197", "shape": [1, 1, 960, 240], "dtype": "float32"}, {"name": "unknown_198", "shape": [240], "dtype": "float32"}, {"name": "unknown_199", "shape": [1, 1, 240, 960], "dtype": "float32"}, {"name": "unknown_200", "shape": [960], "dtype": "float32"}, {"name": "PartitionedCall/PartitionedCall/model/tf.__operators__.add_26/y", "shape": [], "dtype": "float32"}, {"name": "unknown_196", "shape": [], "dtype": "float32"}, {"name": "unknown_195", "shape": [], "dtype": "float32"}, {"name": "unknown_194", "shape": [], "dtype": "float32"}, {"name": "unknown_191", "shape": [], "dtype": "float32"}, {"name": "unknown_190", "shape": [], "dtype": "float32"}, {"name": "unknown_189", "shape": [], "dtype": "float32"}, {"name": "unknown_187", "shape": [1, 1, 160, 960], "dtype": "float32"}, {"name": "unknown_188", "shape": [960], "dtype": "float32"}, {"name": "PartitionedCall/PartitionedCall/model/tf.__operators__.add_24/y", "shape": [], "dtype": "float32"}, {"name": "PartitionedCall/PartitionedCall/model/tf.compat.v1.nn.depthwise_conv2d_14/depthwise/SpaceToBatchND/block_shape", "shape": [2], "dtype": "int32"}, {"name": "PartitionedCall/PartitionedCall/model/tf.compat.v1.nn.depthwise_conv2d_14/depthwise/SpaceToBatchND/paddings", "shape": [2, 2], "dtype": "int32"}, {"name": "unknown_192", "shape": [5, 5, 960, 1], "dtype": "float32"}, {"name": "PartitionedCall/PartitionedCall/model/tf.compat.v1.nn.depthwise_conv2d_14/depthwise/BatchToSpaceND/block_shape", "shape": [2], "dtype": "int32"}, {"name": "PartitionedCall/PartitionedCall/model/tf.compat.v1.nn.depthwise_conv2d_14/depthwise/BatchToSpaceND/crops", "shape": [2, 2], "dtype": "int32"}, {"name": "unknown_193", "shape": [960], "dtype": "float32"}, {"name": "PartitionedCall/PartitionedCall/model/tf.__operators__.add_25/y", "shape": [], "dtype": "float32"}, {"name": "unknown_204", "shape": [1, 1, 960, 160], "dtype": "float32"}, {"name": "unknown_205", "shape": [160], "dtype": "float32"}, {"name": "unknown_184", "shape": [], "dtype": "float32"}, {"name": "unknown_183", "shape": [], "dtype": "float32"}, {"name": "unknown_182", "shape": [], "dtype": "float32"}, {"name": "PartitionedCall/PartitionedCall/model/tf.math.reduce_mean_6/Mean/reduction_indices", "shape": [2], "dtype": "int32"}, {"name": "unknown_178", "shape": [1, 1, 960, 240], "dtype": "float32"}, {"name": "unknown_179", "shape": [240], "dtype": "float32"}, {"name": "unknown_180", "shape": [1, 1, 240, 960], "dtype": "float32"}, {"name": "unknown_181", "shape": [960], "dtype": "float32"}, {"name": "PartitionedCall/PartitionedCall/model/tf.__operators__.add_23/y", "shape": [], "dtype": "float32"}, {"name": "unknown_177", "shape": [], "dtype": "float32"}, {"name": "unknown_176", "shape": [], "dtype": "float32"}, {"name": "unknown_175", "shape": [], "dtype": "float32"}, {"name": "unknown_172", "shape": [], "dtype": "float32"}, {"name": "unknown_171", "shape": [], "dtype": "float32"}, {"name": "unknown_170", "shape": [], "dtype": "float32"}, {"name": "unknown_168", "shape": [1, 1, 160, 960], "dtype": "float32"}, {"name": "unknown_169", "shape": [960], "dtype": "float32"}, {"name": "PartitionedCall/PartitionedCall/model/tf.__operators__.add_21/y", "shape": [], "dtype": "float32"}, {"name": "PartitionedCall/PartitionedCall/model/tf.compat.v1.nn.depthwise_conv2d_13/depthwise/SpaceToBatchND/block_shape", "shape": [2], "dtype": "int32"}, {"name": "PartitionedCall/PartitionedCall/model/tf.compat.v1.nn.depthwise_conv2d_13/depthwise/SpaceToBatchND/paddings", "shape": [2, 2], "dtype": "int32"}, {"name": "unknown_173", "shape": [5, 5, 960, 1], "dtype": "float32"}, {"name": "PartitionedCall/PartitionedCall/model/tf.compat.v1.nn.depthwise_conv2d_13/depthwise/BatchToSpaceND/block_shape", "shape": [2], "dtype": "int32"}, {"name": "PartitionedCall/PartitionedCall/model/tf.compat.v1.nn.depthwise_conv2d_13/depthwise/BatchToSpaceND/crops", "shape": [2, 2], "dtype": "int32"}, {"name": "unknown_174", "shape": [960], "dtype": "float32"}, {"name": "PartitionedCall/PartitionedCall/model/tf.__operators__.add_22/y", "shape": [], "dtype": "float32"}, {"name": "unknown_185", "shape": [1, 1, 960, 160], "dtype": "float32"}, {"name": "unknown_186", "shape": [160], "dtype": "float32"}, {"name": "unknown_165", "shape": [], "dtype": "float32"}, {"name": "unknown_164", "shape": [], "dtype": "float32"}, {"name": "unknown_163", "shape": [], "dtype": "float32"}, {"name": "PartitionedCall/PartitionedCall/model/tf.math.reduce_mean_5/Mean/reduction_indices", "shape": [2], "dtype": "int32"}, {"name": "unknown_159", "shape": [1, 1, 672, 168], "dtype": "float32"}, {"name": "unknown_160", "shape": [168], "dtype": "float32"}, {"name": "unknown_161", "shape": [1, 1, 168, 672], "dtype": "float32"}, {"name": "unknown_162", "shape": [672], "dtype": "float32"}, {"name": "PartitionedCall/PartitionedCall/model/tf.__operators__.add_20/y", "shape": [], "dtype": "float32"}, {"name": "unknown_158", "shape": [], "dtype": "float32"}, {"name": "unknown_157", "shape": [], "dtype": "float32"}, {"name": "unknown_156", "shape": [], "dtype": "float32"}, {"name": "unknown_153", "shape": [], "dtype": "float32"}, {"name": "unknown_152", "shape": [], "dtype": "float32"}, {"name": "unknown_151", "shape": [], "dtype": "float32"}, {"name": "unknown_148", "shape": [112], "dtype": "float32"}, {"name": "unknown_146", "shape": [], "dtype": "float32"}, {"name": "unknown_145", "shape": [], "dtype": "float32"}, {"name": "unknown_144", "shape": [], "dtype": "float32"}, {"name": "PartitionedCall/PartitionedCall/model/tf.math.reduce_mean_4/Mean/reduction_indices", "shape": [2], "dtype": "int32"}, {"name": "unknown_140", "shape": [1, 1, 672, 168], "dtype": "float32"}, {"name": "unknown_141", "shape": [168], "dtype": "float32"}, {"name": "unknown_142", "shape": [1, 1, 168, 672], "dtype": "float32"}, {"name": "unknown_143", "shape": [672], "dtype": "float32"}, {"name": "PartitionedCall/PartitionedCall/model/tf.__operators__.add_17/y", "shape": [], "dtype": "float32"}, {"name": "unknown_139", "shape": [], "dtype": "float32"}, {"name": "unknown_138", "shape": [], "dtype": "float32"}, {"name": "unknown_137", "shape": [], "dtype": "float32"}, {"name": "unknown_134", "shape": [], "dtype": "float32"}, {"name": "unknown_133", "shape": [], "dtype": "float32"}, {"name": "unknown_132", "shape": [], "dtype": "float32"}, {"name": "unknown_130", "shape": [1, 1, 112, 672], "dtype": "float32"}, {"name": "unknown_131", "shape": [672], "dtype": "float32"}, {"name": "PartitionedCall/PartitionedCall/model/tf.__operators__.add_15/y", "shape": [], "dtype": "float32"}, {"name": "unknown_135", "shape": [3, 3, 672, 1], "dtype": "float32"}, {"name": "unknown_136", "shape": [672], "dtype": "float32"}, {"name": "PartitionedCall/PartitionedCall/model/tf.__operators__.add_16/y", "shape": [], "dtype": "float32"}, {"name": "unknown_147", "shape": [1, 1, 672, 112], "dtype": "float32"}, {"name": "unknown_127", "shape": [], "dtype": "float32"}, {"name": "unknown_126", "shape": [], "dtype": "float32"}, {"name": "unknown_125", "shape": [], "dtype": "float32"}, {"name": "PartitionedCall/PartitionedCall/model/tf.math.reduce_mean_3/Mean/reduction_indices", "shape": [2], "dtype": "int32"}, {"name": "unknown_121", "shape": [1, 1, 480, 120], "dtype": "float32"}, {"name": "unknown_122", "shape": [120], "dtype": "float32"}, {"name": "unknown_123", "shape": [1, 1, 120, 480], "dtype": "float32"}, {"name": "unknown_124", "shape": [480], "dtype": "float32"}, {"name": "PartitionedCall/PartitionedCall/model/tf.__operators__.add_14/y", "shape": [], "dtype": "float32"}, {"name": "unknown_120", "shape": [], "dtype": "float32"}, {"name": "unknown_119", "shape": [], "dtype": "float32"}, {"name": "unknown_118", "shape": [], "dtype": "float32"}, {"name": "unknown_115", "shape": [], "dtype": "float32"}, {"name": "unknown_114", "shape": [], "dtype": "float32"}, {"name": "unknown_113", "shape": [], "dtype": "float32"}, {"name": "unknown_110", "shape": [80], "dtype": "float32"}, {"name": "unknown_108", "shape": [], "dtype": "float32"}, {"name": "unknown_107", "shape": [], "dtype": "float32"}, {"name": "unknown_106", "shape": [], "dtype": "float32"}, {"name": "unknown_103", "shape": [], "dtype": "float32"}, {"name": "unknown_102", "shape": [], "dtype": "float32"}, {"name": "unknown_101", "shape": [], "dtype": "float32"}, {"name": "unknown_99", "shape": [1, 1, 80, 184], "dtype": "float32"}, {"name": "unknown_100", "shape": [184], "dtype": "float32"}, {"name": "PartitionedCall/PartitionedCall/model/tf.__operators__.add_10/y", "shape": [], "dtype": "float32"}, {"name": "unknown_104", "shape": [3, 3, 184, 1], "dtype": "float32"}, {"name": "unknown_105", "shape": [184], "dtype": "float32"}, {"name": "PartitionedCall/PartitionedCall/model/tf.__operators__.add_11/y", "shape": [], "dtype": "float32"}, {"name": "unknown_109", "shape": [1, 1, 184, 80], "dtype": "float32"}, {"name": "unknown_98", "shape": [80], "dtype": "float32"}, {"name": "unknown_96", "shape": [], "dtype": "float32"}, {"name": "unknown_95", "shape": [], "dtype": "float32"}, {"name": "unknown_94", "shape": [], "dtype": "float32"}, {"name": "unknown_91", "shape": [], "dtype": "float32"}, {"name": "unknown_90", "shape": [], "dtype": "float32"}, {"name": "unknown_89", "shape": [], "dtype": "float32"}, {"name": "unknown_87", "shape": [1, 1, 80, 184], "dtype": "float32"}, {"name": "unknown_88", "shape": [184], "dtype": "float32"}, {"name": "PartitionedCall/PartitionedCall/model/tf.__operators__.add_8/y", "shape": [], "dtype": "float32"}, {"name": "unknown_92", "shape": [3, 3, 184, 1], "dtype": "float32"}, {"name": "unknown_93", "shape": [184], "dtype": "float32"}, {"name": "PartitionedCall/PartitionedCall/model/tf.__operators__.add_9/y", "shape": [], "dtype": "float32"}, {"name": "unknown_97", "shape": [1, 1, 184, 80], "dtype": "float32"}, {"name": "unknown_86", "shape": [80], "dtype": "float32"}, {"name": "unknown_84", "shape": [], "dtype": "float32"}, {"name": "unknown_83", "shape": [], "dtype": "float32"}, {"name": "unknown_82", "shape": [], "dtype": "float32"}, {"name": "unknown_79", "shape": [], "dtype": "float32"}, {"name": "unknown_78", "shape": [], "dtype": "float32"}, {"name": "unknown_77", "shape": [], "dtype": "float32"}, {"name": "unknown_75", "shape": [1, 1, 80, 200], "dtype": "float32"}, {"name": "unknown_76", "shape": [200], "dtype": "float32"}, {"name": "PartitionedCall/PartitionedCall/model/tf.__operators__.add_6/y", "shape": [], "dtype": "float32"}, {"name": "unknown_80", "shape": [3, 3, 200, 1], "dtype": "float32"}, {"name": "unknown_81", "shape": [200], "dtype": "float32"}, {"name": "PartitionedCall/PartitionedCall/model/tf.__operators__.add_7/y", "shape": [], "dtype": "float32"}, {"name": "unknown_85", "shape": [1, 1, 200, 80], "dtype": "float32"}, {"name": "unknown_72", "shape": [], "dtype": "float32"}, {"name": "unknown_71", "shape": [], "dtype": "float32"}, {"name": "unknown_70", "shape": [], "dtype": "float32"}, {"name": "unknown_66", "shape": [], "dtype": "float32"}, {"name": "unknown_65", "shape": [], "dtype": "float32"}, {"name": "unknown_64", "shape": [], "dtype": "float32"}, {"name": "unknown_61", "shape": [40], "dtype": "float32"}, {"name": "unknown_59", "shape": [], "dtype": "float32"}, {"name": "unknown_58", "shape": [], "dtype": "float32"}, {"name": "unknown_57", "shape": [], "dtype": "float32"}, {"name": "PartitionedCall/PartitionedCall/model/tf.math.reduce_mean_2/Mean/reduction_indices", "shape": [2], "dtype": "int32"}, {"name": "unknown_53", "shape": [1, 1, 120, 32], "dtype": "float32"}, {"name": "unknown_54", "shape": [32], "dtype": "float32"}, {"name": "unknown_55", "shape": [1, 1, 32, 120], "dtype": "float32"}, {"name": "unknown_56", "shape": [120], "dtype": "float32"}, {"name": "PartitionedCall/PartitionedCall/model/tf.__operators__.add_3/y", "shape": [], "dtype": "float32"}, {"name": "unknown_49", "shape": [1, 1, 40, 120], "dtype": "float32"}, {"name": "unknown_50", "shape": [120], "dtype": "float32"}, {"name": "unknown_51", "shape": [5, 5, 120, 1], "dtype": "float32"}, {"name": "unknown_52", "shape": [120], "dtype": "float32"}, {"name": "unknown_60", "shape": [1, 1, 120, 40], "dtype": "float32"}, {"name": "unknown_48", "shape": [40], "dtype": "float32"}, {"name": "unknown_46", "shape": [], "dtype": "float32"}, {"name": "unknown_45", "shape": [], "dtype": "float32"}, {"name": "unknown_44", "shape": [], "dtype": "float32"}, {"name": "PartitionedCall/PartitionedCall/model/tf.math.reduce_mean_1/Mean/reduction_indices", "shape": [2], "dtype": "int32"}, {"name": "unknown_40", "shape": [1, 1, 120, 32], "dtype": "float32"}, {"name": "unknown_41", "shape": [32], "dtype": "float32"}, {"name": "unknown_42", "shape": [1, 1, 32, 120], "dtype": "float32"}, {"name": "unknown_43", "shape": [120], "dtype": "float32"}, {"name": "PartitionedCall/PartitionedCall/model/tf.__operators__.add_2/y", "shape": [], "dtype": "float32"}, {"name": "unknown_36", "shape": [1, 1, 40, 120], "dtype": "float32"}, {"name": "unknown_37", "shape": [120], "dtype": "float32"}, {"name": "unknown_38", "shape": [5, 5, 120, 1], "dtype": "float32"}, {"name": "unknown_39", "shape": [120], "dtype": "float32"}, {"name": "unknown_47", "shape": [1, 1, 120, 40], "dtype": "float32"}, {"name": "unknown_33", "shape": [], "dtype": "float32"}, {"name": "unknown_32", "shape": [], "dtype": "float32"}, {"name": "unknown_31", "shape": [], "dtype": "float32"}, {"name": "PartitionedCall/PartitionedCall/model/tf.math.reduce_mean/Mean/reduction_indices", "shape": [2], "dtype": "int32"}, {"name": "unknown_27", "shape": [1, 1, 72, 24], "dtype": "float32"}, {"name": "unknown_28", "shape": [24], "dtype": "float32"}, {"name": "unknown_29", "shape": [1, 1, 24, 72], "dtype": "float32"}, {"name": "unknown_30", "shape": [72], "dtype": "float32"}, {"name": "PartitionedCall/PartitionedCall/model/tf.__operators__.add_1/y", "shape": [], "dtype": "float32"}, {"name": "unknown_21", "shape": [24], "dtype": "float32"}, {"name": "unknown_16", "shape": [1, 1, 24, 72], "dtype": "float32"}, {"name": "unknown_17", "shape": [72], "dtype": "float32"}, {"name": "unknown_18", "shape": [3, 3, 72, 1], "dtype": "float32"}, {"name": "unknown_19", "shape": [72], "dtype": "float32"}, {"name": "unknown_20", "shape": [1, 1, 72, 24], "dtype": "float32"}, {"name": "unknown_8", "shape": [16], "dtype": "float32"}, {"name": "unknown_5", "shape": [3, 3, 16, 1], "dtype": "float32"}, {"name": "unknown_6", "shape": [16], "dtype": "float32"}, {"name": "unknown_7", "shape": [1, 1, 16, 16], "dtype": "float32"}, {"name": "unknown_4", "shape": [], "dtype": "float32"}, {"name": "unknown_3", "shape": [], "dtype": "float32"}, {"name": "unknown_2", "shape": [], "dtype": "float32"}, {"name": "unknown", "shape": [4, 2], "dtype": "int32"}, {"name": "unknown_0", "shape": [3, 3, 3, 16], "dtype": "float32"}, {"name": "unknown_1", "shape": [16], "dtype": "float32"}, {"name": "PartitionedCall/PartitionedCall/model/tf.__operators__.add/y", "shape": [], "dtype": "float32"}, {"name": "unknown_9", "shape": [1, 1, 16, 64], "dtype": "float32"}, {"name": "unknown_10", "shape": [64], "dtype": "float32"}, {"name": "unknown_11", "shape": [4, 2], "dtype": "int32"}, {"name": "unknown_12", "shape": [3, 3, 64, 1], "dtype": "float32"}, {"name": "unknown_13", "shape": [64], "dtype": "float32"}, {"name": "unknown_14", "shape": [1, 1, 64, 24], "dtype": "float32"}, {"name": "unknown_15", "shape": [24], "dtype": "float32"}, {"name": "unknown_22", "shape": [1, 1, 24, 72], "dtype": "float32"}, {"name": "unknown_23", "shape": [72], "dtype": "float32"}, {"name": "unknown_24", "shape": [4, 2], "dtype": "int32"}, {"name": "unknown_25", "shape": [5, 5, 72, 1], "dtype": "float32"}, {"name": "unknown_26", "shape": [72], "dtype": "float32"}, {"name": "unknown_34", "shape": [1, 1, 72, 40], "dtype": "float32"}, {"name": "unknown_35", "shape": [40], "dtype": "float32"}, {"name": "unknown_62", "shape": [1, 1, 40, 240], "dtype": "float32"}, {"name": "unknown_63", "shape": [240], "dtype": "float32"}, {"name": "PartitionedCall/PartitionedCall/model/tf.__operators__.add_4/y", "shape": [], "dtype": "float32"}, {"name": "unknown_67", "shape": [4, 2], "dtype": "int32"}, {"name": "unknown_68", "shape": [3, 3, 240, 1], "dtype": "float32"}, {"name": "unknown_69", "shape": [240], "dtype": "float32"}, {"name": "PartitionedCall/PartitionedCall/model/tf.__operators__.add_5/y", "shape": [], "dtype": "float32"}, {"name": "unknown_73", "shape": [1, 1, 240, 80], "dtype": "float32"}, {"name": "unknown_74", "shape": [80], "dtype": "float32"}, {"name": "unknown_111", "shape": [1, 1, 80, 480], "dtype": "float32"}, {"name": "unknown_112", "shape": [480], "dtype": "float32"}, {"name": "PartitionedCall/PartitionedCall/model/tf.__operators__.add_12/y", "shape": [], "dtype": "float32"}, {"name": "unknown_116", "shape": [3, 3, 480, 1], "dtype": "float32"}, {"name": "unknown_117", "shape": [480], "dtype": "float32"}, {"name": "PartitionedCall/PartitionedCall/model/tf.__operators__.add_13/y", "shape": [], "dtype": "float32"}, {"name": "unknown_128", "shape": [1, 1, 480, 112], "dtype": "float32"}, {"name": "unknown_129", "shape": [112], "dtype": "float32"}, {"name": "unknown_149", "shape": [1, 1, 112, 672], "dtype": "float32"}, {"name": "unknown_150", "shape": [672], "dtype": "float32"}, {"name": "PartitionedCall/PartitionedCall/model/tf.__operators__.add_18/y", "shape": [], "dtype": "float32"}, {"name": "PartitionedCall/PartitionedCall/model/tf.compat.v1.nn.depthwise_conv2d_12/depthwise/SpaceToBatchND/block_shape", "shape": [2], "dtype": "int32"}, {"name": "PartitionedCall/PartitionedCall/model/tf.compat.v1.nn.depthwise_conv2d_12/depthwise/SpaceToBatchND/paddings", "shape": [2, 2], "dtype": "int32"}, {"name": "unknown_154", "shape": [5, 5, 672, 1], "dtype": "float32"}, {"name": "PartitionedCall/PartitionedCall/model/tf.compat.v1.nn.depthwise_conv2d_12/depthwise/BatchToSpaceND/block_shape", "shape": [2], "dtype": "int32"}, {"name": "PartitionedCall/PartitionedCall/model/tf.compat.v1.nn.depthwise_conv2d_12/depthwise/BatchToSpaceND/crops", "shape": [2, 2], "dtype": "int32"}, {"name": "unknown_155", "shape": [672], "dtype": "float32"}, {"name": "PartitionedCall/PartitionedCall/model/tf.__operators__.add_19/y", "shape": [], "dtype": "float32"}, {"name": "unknown_166", "shape": [1, 1, 672, 160], "dtype": "float32"}, {"name": "unknown_167", "shape": [160], "dtype": "float32"}, {"name": "unknown_206", "shape": [1, 1, 160, 960], "dtype": "float32"}, {"name": "unknown_207", "shape": [960], "dtype": "float32"}, {"name": "PartitionedCall/PartitionedCall/model/tf.__operators__.add_27/y", "shape": [], "dtype": "float32"}, {"name": "PartitionedCall/PartitionedCall/model/tf.math.reduce_mean_8/Mean/reduction_indices", "shape": [2], "dtype": "int32"}, {"name": "unknown_211", "shape": [1, 1, 960, 256], "dtype": "float32"}, {"name": "unknown_215", "shape": [256], "dtype": "float32"}, {"name": "unknown_221", "shape": [2], "dtype": "int32"}, {"name": "PartitionedCall/PartitionedCall/model/tf.concat/concat/axis", "shape": [], "dtype": "int32"}, {"name": "unknown_222", "shape": [1, 1, 1280, 256], "dtype": "float32"}, {"name": "unknown_223", "shape": [256], "dtype": "float32"}, {"name": "unknown_224", "shape": [3, 3, 256, 256], "dtype": "float32"}, {"name": "unknown_225", "shape": [256], "dtype": "float32"}, {"name": "unknown_226", "shape": [1, 1, 256, 2], "dtype": "float32"}, {"name": "unknown_227", "shape": [2], "dtype": "float32"}, {"name": "unknown_228", "shape": [2], "dtype": "int32"}]}]}